nequip/results/toluene/example-run-toluene/last_model.pth (torch, 986369 bytes, 57 tensors)

model.model.func.module1.linear.weight f4 [64]
000000 87 eb de bf 1a 1d ba be bf f6 7a 3f c8 8d de bf
       -1.7415627 -0.36350328 0.98032755 -1.7387018
000010 9a c0 b4 3e 0a 74 4f be b9 ce 01 bf 2c 91 59 3e
       0.35303193 -0.20259109 -0.5070606 0.21246785
000020 47 72 88 bf cb 8d 35 3f 14 46 a8 be b9 64 76 be
       -1.0659875 0.70919484 -0.32865965 -0.2406186
000030 5a b7 ad be cf 70 a6 bf c6 3a ad bf 54 c5 0e 3d
       -0.3392895 -1.3003176 -1.3533561 0.034856156
000040 18 a1 97 bf e2 64 ab be 7e 37 b3 3f f7 97 7d 3f
       -1.1846037 -0.33475405 1.400131 0.99060005
000050 54 7c fc 3e a3 d1 b6 bf 74 93 0f 3f 86 c1 be bd
       0.49313605 -1.4282726 0.5608437 -0.093142554
000060 1f 17 ff bf 36 43 90 3e 8e 1d 41 3f 0e ba a2 3f
       -1.9928931 0.28176278 0.7543572 1.2713029
000070 85 12 88 3f f4 86 e8 bf 8e a7 46 3f a7 b3 2b bf
       1.0630652 -1.8166184 0.7759942 -0.67071
000080 1f c0 3c 3f 4b 3e 20 bf 0a e1 c2 3e 2e e1 45 3f
       0.73730654 -0.6259505 0.38062316 0.7729672
000090 e0 f5 e2 3f 5a 9c 49 3e 9d fd 24 3f b8 8d b7 3f
       1.7731285 0.1968855 0.64449483 1.4340124
0000a0 0a ea f9 3f 58 4e 0f bf 27 4f da bf 78 63 69 3f
       1.9524548 -0.5597892 -1.7055405 0.911674
0000b0 f5 59 05 3f a0 db 86 bf f2 96 c2 3c 24 c6 bb 3f
       0.5209039 -1.0535774 0.023753617 1.4669843
0000c0 61 68 94 3f 40 ca 2b 3f 23 ae e9 bf 16 9c 58 bf
       1.1594354 0.67105484 -1.8256267 -0.8461317
0000d0 92 b1 a8 3f 0d f6 34 bf 74 01 9d 3f c8 ea a6 3d
       1.317919 -0.70687944 1.2266068 0.0815025
0000e0 27 f3 8a 3f e1 1d 19 3f a9 26 35 bf e0 3e 07 3f
       1.0855454 0.59811217 -0.70762116 0.52830315
0000f0 85 b7 9d bc 2b fc aa bd 67 5a 11 bf ad a6 88 3e
       -0.019252548 -0.083488785 -0.5677857 0.26689664

model.model.func.module1.linear.output_mask f4 [32]
000000 00 00 80 3f 00 00 80 3f 00 00 80 3f 00 00 80 3f
       1.0 1.0 1.0 1.0
000010 00 00 80 3f 00 00 80 3f 00 00 80 3f 00 00 80 3f
       1.0 1.0 1.0 1.0
000020 00 00 80 3f 00 00 80 3f 00 00 80 3f 00 00 80 3f
       1.0 1.0 1.0 1.0
000030 00 00 80 3f 00 00 80 3f 00 00 80 3f 00 00 80 3f
       1.0 1.0 1.0 1.0
000040 00 00 80 3f 00 00 80 3f 00 00 80 3f 00 00 80 3f
       1.0 1.0 1.0 1.0
000050 00 00 80 3f 00 00 80 3f 00 00 80 3f 00 00 80 3f
       1.0 1.0 1.0 1.0
000060 00 00 80 3f 00 00 80 3f 00 00 80 3f 00 00 80 3f
       1.0 1.0 1.0 1.0
000070 00 00 80 3f 00 00 80 3f 00 00 80 3f 00 00 80 3f
       1.0 1.0 1.0 1.0

model.model.func.module2.basis.bessel_weights f4 [8]
000000 db 0f 49 40 db 0f c9 40 e4 cb 16 41 db 0f 49 41
       3.1415927 6.2831855 9.424778 12.566371
000010 d2 53 7b 41 e4 cb 96 41 e0 ed af 41 db 0f c9 41
       15.707964 18.849556 21.99115 25.132742

model.model.func.module4.equivariant_nonlin.mul.output_mask f4 [256]
000000 00 00 80 3f 00 00 80 3f 00 00 80 3f 00 00 80 3f
       1.0 1.0 1.0 1.0
000010 00 00 80 3f 00 00 80 3f 00 00 80 3f 00 00 80 3f
       1.0 1.0 1.0 1.0
000020 00 00 80 3f 00 00 80 3f 00 00 80 3f 00 00 80 3f
       1.0 1.0 1.0 1.0
000030 00 00 80 3f 00 00 80 3f 00 00 80 3f 00 00 80 3f
       1.0 1.0 1.0 1.0
000040 00 00 80 3f 00 00 80 3f 00 00 80 3f 00 00 80 3f
       1.0 1.0 1.0 1.0
000050 00 00 80 3f 00 00 80 3f 00 00 80 3f 00 00 80 3f
       1.0 1.0 1.0 1.0
000060 00 00 80 3f 00 00 80 3f 00 00 80 3f 00 00 80 3f
       1.0 1.0 1.0 1.0
000070 00 00 80 3f 00 00 80 3f 00 00 80 3f 00 00 80 3f
       1.0 1.0 1.0 1.0
000080 00 00 80 3f 00 00 80 3f 00 00 80 3f 00 00 80 3f
       1.0 1.0 1.0 1.0
000090 00 00 80 3f 00 00 80 3f 00 00 80 3f 00 00 80 3f
       1.0 1.0 1.0 1.0
0000a0 00 00 80 3f 00 00 80 3f 00 00 80 3f 00 00 80 3f
       1.0 1.0 1.0 1.0
0000b0 00 00 80 3f 00 00 80 3f 00 00 80 3f 00 00 80 3f
       1.0 1.0 1.0 1.0
0000c0 00 00 80 3f 00 00 80 3f 00 00 80 3f 00 00 80 3f
       1.0 1.0 1.0 1.0
0000d0 00 00 80 3f 00 00 80 3f 00 00 80 3f 00 00 80 3f
       1.0 1.0 1.0 1.0
0000e0 00 00 80 3f 00 00 80 3f 00 00 80 3f 00 00 80 3f
       1.0 1.0 1.0 1.0
0000f0 00 00 80 3f 00 00 80 3f 00 00 80 3f 00 00 80 3f
       1.0 1.0 1.0 1.0
000100 00 00 80 3f 00 00 80 3f 00 00 80 3f 00 00 80 3f
       1.0 1.0 1.0 1.0
000110 00 00 80 3f 00 00 80 3f 00 00 80 3f 00 00 80 3f
       1.0 1.0 1.0 1.0
000120 00 00 80 3f 00 00 80 3f 00 00 80 3f 00 00 80 3f
       1.0 1.0 1.0 1.0
000130 00 00 80 3f 00 00 80 3f 00 00 80 3f 00 00 80 3f
       1.0 1.0 1.0 1.0
000140 00 00 80 3f 00 00 80 3f 00 00 80 3f 00 00 80 3f
       1.0 1.0 1.0 1.0
000150 00 00 80 3f 00 00 80 3f 00 00 80 3f 00 00 80 3f
       1.0 1.0 1.0 1.0
000160 00 00 80 3f 00 00 80 3f 00 00 80 3f 00 00 80 3f
       1.0 1.0 1.0 1.0
000170 00 00 80 3f 00 00 80 3f 00 00 80 3f 00 00 80 3f
       1.0 1.0 1.0 1.0
000180 00 00 80 3f 00 00 80 3f 00 00 80 3f 00 00 80 3f
       1.0 1.0 1.0 1.0
000190 00 00 80 3f 00 00 80 3f 00 00 80 3f 00 00 80 3f
       1.0 1.0 1.0 1.0
0001a0 00 00 80 3f 00 00 80 3f 00 00 80 3f 00 00 80 3f
       1.0 1.0 1.0 1.0
0001b0 00 00 80 3f 00 00 80 3f 00 00 80 3f 00 00 80 3f
       1.0 1.0 1.0 1.0
0001c0 00 00 80 3f 00 00 80 3f 00 00 80 3f 00 00 80 3f
       1.0 1.0 1.0 1.0
0001d0 00 00 80 3f 00 00 80 3f 00 00 80 3f 00 00 80 3f
       1.0 1.0 1.0 1.0
0001e0 00 00 80 3f 00 00 80 3f 00 00 80 3f 00 00 80 3f
       1.0 1.0 1.0 1.0
0001f0 00 00 80 3f 00 00 80 3f 00 00 80 3f 00 00 80 3f
       1.0 1.0 1.0 1.0
000200 00 00 80 3f 00 00 80 3f 00 00 80 3f 00 00 80 3f
       1.0 1.0 1.0 1.0
000210 00 00 80 3f 00 00 80 3f 00 00 80 3f 00 00 80 3f
       1.0 1.0 1.0 1.0
000220 00 00 80 3f 00 00 80 3f 00 00 80 3f 00 00 80 3f
       1.0 1.0 1.0 1.0
000230 00 00 80 3f 00 00 80 3f 00 00 80 3f 00 00 80 3f
       1.0 1.0 1.0 1.0
000240 00 00 80 3f 00 00 80 3f 00 00 80 3f 00 00 80 3f
       1.0 1.0 1.0 1.0
000250 00 00 80 3f 00 00 80 3f 00 00 80 3f 00 00 80 3f
       1.0 1.0 1.0 1.0
000260 00 00 80 3f 00 00 80 3f 00 00 80 3f 00 00 80 3f
       1.0 1.0 1.0 1.0
000270 00 00 80 3f 00 00 80 3f 00 00 80 3f 00 00 80 3f
       1.0 1.0 1.0 1.0
000280 00 00 80 3f 00 00 80 3f 00 00 80 3f 00 00 80 3f
       1.0 1.0 1.0 1.0
000290 00 00 80 3f 00 00 80 3f 00 00 80 3f 00 00 80 3f
       1.0 1.0 1.0 1.0
0002a0 00 00 80 3f 00 00 80 3f 00 00 80 3f 00 00 80 3f
       1.0 1.0 1.0 1.0
0002b0 00 00 80 3f 00 00 80 3f 00 00 80 3f 00 00 80 3f
       1.0 1.0 1.0 1.0
0002c0 00 00 80 3f 00 00 80 3f 00 00 80 3f 00 00 80 3f
       1.0 1.0 1.0 1.0
0002d0 00 00 80 3f 00 00 80 3f 00 00 80 3f 00 00 80 3f
       1.0 1.0 1.0 1.0
0002e0 00 00 80 3f 00 00 80 3f 00 00 80 3f 00 00 80 3f
       1.0 1.0 1.0 1.0
0002f0 00 00 80 3f 00 00 80 3f 00 00 80 3f 00 00 80 3f
       1.0 1.0 1.0 1.0
000300 00 00 80 3f 00 00 80 3f 00 00 80 3f 00 00 80 3f
       1.0 1.0 1.0 1.0
000310 00 00 80 3f 00 00 80 3f 00 00 80 3f 00 00 80 3f
       1.0 1.0 1.0 1.0
000320 00 00 80 3f 00 00 80 3f 00 00 80 3f 00 00 80 3f
       1.0 1.0 1.0 1.0
000330 00 00 80 3f 00 00 80 3f 00 00 80 3f 00 00 80 3f
       1.0 1.0 1.0 1.0
000340 00 00 80 3f 00 00 80 3f 00 00 80 3f 00 00 80 3f
       1.0 1.0 1.0 1.0
000350 00 00 80 3f 00 00 80 3f 00 00 80 3f 00 00 80 3f
       1.0 1.0 1.0 1.0
000360 00 00 80 3f 00 00 80 3f 00 00 80 3f 00 00 80 3f
       1.0 1.0 1.0 1.0
000370 00 00 80 3f 00 00 80 3f 00 00 80 3f 00 00 80 3f
       1.0 1.0 1.0 1.0
000380 00 00 80 3f 00 00 80 3f 00 00 80 3f 00 00 80 3f
       1.0 1.0 1.0 1.0
000390 00 00 80 3f 00 00 80 3f 00 00 80 3f 00 00 80 3f
       1.0 1.0 1.0 1.0
0003a0 00 00 80 3f 00 00 80 3f 00 00 80 3f 00 00 80 3f
       1.0 1.0 1.0 1.0
0003b0 00 00 80 3f 00 00 80 3f 00 00 80 3f 00 00 80 3f
       1.0 1.0 1.0 1.0
0003c0 00 00 80 3f 00 00 80 3f 00 00 80 3f 00 00 80 3f
       1.0 1.0 1.0 1.0
0003d0 00 00 80 3f 00 00 80 3f 00 00 80 3f 00 00 80 3f
       1.0 1.0 1.0 1.0
0003e0 00 00 80 3f 00 00 80 3f 00 00 80 3f 00 00 80 3f
       1.0 1.0 1.0 1.0
0003f0 00 00 80 3f 00 00 80 3f 00 00 80 3f 00 00 80 3f
       1.0 1.0 1.0 1.0

model.model.func.module4.conv.linear_1.weight f4 [1024]
000000 87 eb de bf 1a 1d ba be bf f6 7a 3f c8 8d de bf
       -1.7415627 -0.36350328 0.98032755 -1.7387018
000010 9a c0 b4 3e 0a 74 4f be b9 ce 01 bf 2c 91 59 3e
       0.35303193 -0.20259109 -0.5070606 0.21246785
000020 47 72 88 bf cb 8d 35 3f 14 46 a8 be b9 64 76 be
       -1.0659875 0.70919484 -0.32865965 -0.2406186
000030 5a b7 ad be cf 70 a6 bf c6 3a ad bf 54 c5 0e 3d
       -0.3392895 -1.3003176 -1.3533561 0.034856156
000040 18 a1 97 bf e2 64 ab be 7e 37 b3 3f f7 97 7d 3f
       -1.1846037 -0.33475405 1.400131 0.99060005
000050 54 7c fc 3e a3 d1 b6 bf 74 93 0f 3f 86 c1 be bd
       0.49313605 -1.4282726 0.5608437 -0.093142554
000060 1f 17 ff bf 36 43 90 3e 8e 1d 41 3f 0e ba a2 3f
       -1.9928931 0.28176278 0.7543572 1.2713029
000070 85 12 88 3f f4 86 e8 bf 8e a7 46 3f a7 b3 2b bf
       1.0630652 -1.8166184 0.7759942 -0.67071
000080 1f c0 3c 3f 4b 3e 20 bf 0a e1 c2 3e 2e e1 45 3f
       0.73730654 -0.6259505 0.38062316 0.7729672
000090 e0 f5 e2 3f 5a 9c 49 3e 9d fd 24 3f b8 8d b7 3f
       1.7731285 0.1968855 0.64449483 1.4340124
0000a0 0a ea f9 3f 58 4e 0f bf 27 4f da bf 78 63 69 3f
       1.9524548 -0.5597892 -1.7055405 0.911674
0000b0 f5 59 05 3f a0 db 86 bf f2 96 c2 3c 24 c6 bb 3f
       0.5209039 -1.0535774 0.023753617 1.4669843
0000c0 61 68 94 3f 40 ca 2b 3f 23 ae e9 bf 16 9c 58 bf
       1.1594354 0.67105484 -1.8256267 -0.8461317
0000d0 92 b1 a8 3f 0d f6 34 bf 74 01 9d 3f c8 ea a6 3d
       1.317919 -0.70687944 1.2266068 0.0815025
0000e0 27 f3 8a 3f e1 1d 19 3f a9 26 35 bf e0 3e 07 3f
       1.0855454 0.59811217 -0.70762116 0.52830315
0000f0 85 b7 9d bc 2b fc aa bd 67 5a 11 bf ad a6 88 3e
       -0.019252548 -0.083488785 -0.5677857 0.26689664
000100 ea 75 89 3d 56 3b 07 3e 1c 68 1d bf d7 5a af 3f
       0.067119434 0.13206229 -0.61486983 1.3699597
000110 8a 1a 9c 3f f5 1c 1a 3f 9b 38 be 3d 97 66 68 bf
       1.2195599 0.60200435 0.092881404 -0.9078154
000120 7b d5 b2 bf aa 49 83 3f d4 53 19 40 b7 25 11 3f
       -1.3971399 1.0256855 2.3957415 0.56698173
000130 8b 18 61 be bf 8b 40 be 2d 34 c5 3e 19 d2 bc bd
       -0.21982019 -0.18803309 0.3851637 -0.092197604
000140 b1 e9 64 3f c5 90 a8 bf a4 13 20 be 92 d8 31 be
       0.89419085 -1.316918 -0.15632492 -0.17367771
000150 93 c2 60 3f 27 94 0e 3e f5 2d 35 bf bb e7 22 bf
       0.87796897 0.13923703 -0.7077325 -0.6363484
000160 02 0e 31 3f a6 bc 52 3e 71 b3 19 3f e3 26 1f bf
       0.69162 0.20579776 0.6003943 -0.6216871
000170 b7 92 15 bf 29 8e f3 3e 70 8e 87 3f 7e e4 c9 3e
       -0.58426994 0.47569397 1.0590343 0.39432138
000180 b9 40 22 3e 80 48 44 3d 48 72 6b 3e 91 3c 49 bf
       0.15845002 0.047920704 0.22992814 -0.7860804
000190 b6 10 e1 be df 92 bf 3f 67 a5 09 bd 8d 74 fa 3f
       -0.43958062 1.4966697 -0.033605006 1.9566818
0001a0 1a dc b9 3c 4f 49 2b 3e 0d 44 c4 bf c3 36 4d 3f
       0.02268796 0.16727184 -1.5333267 0.80161685
0001b0 af 23 1b 3f de 5e 14 40 e5 79 44 bd 43 a9 ae bf
       0.60601324 2.3182902 -0.04796781 -1.3645405
0001c0 b4 b7 af bf 9e b3 ab 3f e2 ae a3 be 58 cf d4 be
       -1.3727937 1.341419 -0.31969362 -0.4156444
0001d0 fd 12 d6 be 54 a8 10 3f e0 81 36 3f ba 74 94 bf
       -0.41811362 0.5650685 0.71291924 -1.1598122
0001e0 c3 f7 09 bf 62 03 2d 40 0c aa ad 3e 5f f9 df bd
       -0.5389368 2.7033315 0.33918798 -0.10936236
0001f0 4d 8d 05 bf 2b 4d 6f 3f fe cd 8f bf 62 de 92 3e
       -0.5216873 0.93477124 -1.1234739 0.2868529
000200 e7 40 43 3e e2 6e 18 c0 c6 88 ba 3f be 92 31 bf
       0.19067727 -2.3817677 1.457299 -0.69364536
000210 42 c8 88 be fc 8b e9 bd ed 74 20 3e 1a 9d 0a c0
       -0.26715285 -0.11403653 0.15669604 -2.1658387
000220 66 4e c1 bf 70 09 20 bf 97 e9 5f bf 94 d5 b0 3f
       -1.510205 -0.625144 -0.87465805 1.3815179
000230 d8 eb 52 3f ed b0 0d 3f ab 08 bf 3f 8d 45 8d 3e
       0.8239112 0.5534809 1.492452 0.27592126
000240 d9 4f 5c 3d aa e5 f6 3f aa d3 da bc ca 1a 83 be
       0.053787086 1.9288838 -0.026712257 -0.25606376
000250 53 dd 93 bf 17 42 4a 3f 3b 1a 05 bf d2 55 ac bd
       -1.1551918 0.79007095 -0.5199315 -0.084148064
000260 5c 24 36 be d3 3d ba be 21 bb d4 bb df b3 3c 3f
       -0.17787308 -0.36375293 -0.006492034 0.7371196
000270 23 d4 84 3f 67 fe 4e 3f 10 2a 27 bf 29 39 a1 be
       1.0377239 0.8085694 -0.6529856 -0.31488922
000280 b1 af 73 3f f7 f8 3e bf 92 b4 bd 3f 88 fe 85 3f
       0.9518996 -0.7459864 1.4820731 1.0468302
000290 9f 4f 84 3f da 98 a7 bf 6f e8 81 3f 03 19 fe bd
       1.0336798 -1.3093522 1.0149058 -0.12407114
0002a0 87 c9 a8 3e ac c7 31 be 23 b1 50 3f 7b ea 6b 3e
       0.32966253 -0.17361325 0.8152029 0.23038666
0002b0 ec 68 8e bf 02 18 ae 3e b1 0a d0 bf f0 e9 45 bf
       -1.112577 0.34002692 -1.6253263 -0.77310085
0002c0 28 bb 03 c0 5a a1 a0 bf af 59 0b be 4d 40 22 3f
       -2.058298 -1.254924 -0.1360843 0.63379365
0002d0 3a f3 87 be 6a fd 4f bc d1 65 76 3f 0d d5 da 3f
       -0.26552755 -0.012694696 0.9624911 1.7096268
0002e0 a7 b0 6d 3f dd 02 f4 be 38 2b 1f 40 c1 95 0a 3f
       0.92847675 -0.47658435 2.4870129 0.54134756
0002f0 84 46 16 bf c1 34 91 3f 11 2a 68 be a9 5d f3 be
       -0.5870135 1.1344224 -0.22672297 -0.47532395
000300 9a 18 57 be b9 b2 0e 3f 66 bc 12 bf c0 98 5e c0
       -0.21005479 0.5574146 -0.57318723 -3.4780731
000310 7b 66 21 bf 63 7c 27 40 f0 54 07 c0 65 e6 8d 3d
       -0.63047 2.616967 -2.1145592 0.0692871
000320 eb ca 90 3e 7b 8e 1d bf 53 90 9c 3e 26 57 d9 3f
       0.28279814 -0.6154553 0.3057886 1.697972
000330 1a 70 cd be c2 b3 10 3f 86 85 8a 3e f3 a6 87 bf
       -0.4012459 0.5652429 0.27054995 -1.0597824
000340 15 43 13 3f e3 48 82 3f 20 96 55 be 96 68 82 bf
       0.57524234 1.0178493 -0.2085805 -1.0188167
000350 d6 de a4 3f ef 53 90 3f c1 b1 09 3f fc 23 ae bf
       1.2880504 1.1275615 0.53786856 -1.3604732
000360 b6 96 1a 3f 77 a8 ce be fc d6 1d bf 9d 75 91 be
       0.60386217 -0.40362903 -0.61656165 -0.28410044
000370 5f 8b 86 3f c4 10 da bd 6c 9c 60 3d fe 8c 37 3e
       1.0511283 -0.10647729 0.054836676 0.17924878
000380 2c 0a a5 be 29 a7 d1 be 40 23 a4 bf 90 c9 e9 bf
       -0.32234323 -0.40947846 -1.2823257 -1.8264637
000390 61 4d b8 3f b2 db 94 bf 1e e2 8b 3f 92 81 0e 3e
       1.4398614 -1.1629546 1.092838 0.13916615
0003a0 9e 78 91 be bc 07 eb 3d 05 11 14 bf a9 c6 0c 3f
       -0.28412336 0.114760846 -0.5783847 0.5499063
0003b0 a7 44 e5 3e d4 ff 19 40 07 f4 44 be f8 55 06 bf
       0.4477894 2.4062395 -0.19233714 -0.5247493
0003c0 ef d4 9c 3f bd 5d 6a bf db 2d ad bd 04 17 a5 bf
       1.2252482 -0.91549283 -0.08456012 -1.2897649
0003d0 2c ef e2 3e ac fc 67 bf 11 e8 72 be 8c 43 56 bf
       0.443231 -0.9061992 -0.23721339 -0.8369682
0003e0 b7 eb ed 3f b4 f6 8a 3f 0f df 11 c0 f1 8c b4 3e
       1.858756 1.0856538 -2.2792394 0.3526378
0003f0 89 b4 97 3f 42 7b 10 3f 7d e5 4c bf 57 2b c6 3f
       1.185197 0.56438076 -0.8003767 1.5481976

model.model.func.module4.conv.linear_1.output_mask f4 [32]
000000 00 00 80 3f 00 00 80 3f 00 00 80 3f 00 00 80 3f
       1.0 1.0 1.0 1.0
000010 00 00 80 3f 00 00 80 3f 00 00 80 3f 00 00 80 3f
       1.0 1.0 1.0 1.0
000020 00 00 80 3f 00 00 80 3f 00 00 80 3f 00 00 80 3f
       1.0 1.0 1.0 1.0
000030 00 00 80 3f 00 00 80 3f 00 00 80 3f 00 00 80 3f
       1.0 1.0 1.0 1.0
000040 00 00 80 3f 00 00 80 3f 00 00 80 3f 00 00 80 3f
       1.0 1.0 1.0 1.0
000050 00 00 80 3f 00 00 80 3f 00 00 80 3f 00 00 80 3f
       1.0 1.0 1.0 1.0
000060 00 00 80 3f 00 00 80 3f 00 00 80 3f 00 00 80 3f
       1.0 1.0 1.0 1.0
000070 00 00 80 3f 00 00 80 3f 00 00 80 3f 00 00 80 3f
       1.0 1.0 1.0 1.0

model.model.func.module4.conv.fc.layer0.weight f4 [8, 64]
000000 3d a1 79 3e 15 41 a4 3e 93 12 5f bf ac 08 9b 3f
       0.24377914 0.32080904 -0.87137717 1.2112021
000010 c7 cb 63 bf e6 90 0f bf e6 d1 70 bf 44 20 01 c0
       -0.88982815 -0.5608047 -0.9407028 -2.0175943
000020 d1 7e 4b bf f5 37 23 40 51 2f 7f bf 2a 22 17 3f
       -0.7949038 2.5502903 -0.99681574 0.59036505
000030 36 be 24 3f 5f 39 ee 3f ee 86 e3 be 67 29 9c 3e
       0.6435274 1.8611258 -0.4443888 0.30500337
000040 eb ac ed be 0a a6 8e bf f8 a5 ba be ba 3f e4 be
       -0.46420988 -1.1144421 -0.3645475 -0.4457987
000050 f4 fd a5 be ab 04 23 bf 86 f3 23 c0 c7 97 6f be
       -0.32420313 -0.63679 -2.5617385 -0.23397742
000060 72 30 cf bf 44 46 f2 bf 03 0e 80 3e ef f0 78 3e
       -1.6186659 -1.8927693 0.2501069 0.24310659
000070 fb 01 ff 3e fe 0d 67 be 1e a7 11 bf 2e a8 a8 3e
       0.49806198 -0.22563931 -0.56895626 0.3294081
000080 45 ca 35 3f e6 f6 60 3f 17 17 b4 3e 91 23 90 bf
       0.71011764 0.8787674 0.35173866 -1.1260854
000090 fe dc 03 3d 08 ee 47 3e 15 d4 5f 3f 58 be 3e 3f
       0.032193176 0.19524395 0.87432986 0.7450919
0000a0 0e f9 04 3f 8f 81 3e bf 1e 84 15 bf 6a 40 78 bf
       0.5194253 -0.7441644 -0.5840472 -0.9697329
0000b0 8c e2 79 3e de ad ff bd a0 9a 96 bd c4 e2 b7 3d
       0.24402827 -0.124843344 -0.07353711 0.08978799
0000c0 ac d8 e3 3e da 5d 8d bf 2c 31 78 3e 05 a2 b1 3f
       0.44501245 -1.1044266 0.24237508 1.387757
0000d0 2e 4b 82 bd fb 66 a4 be 86 73 ae 3c 08 53 cf bf
       -0.06361996 -0.32109818 0.02129532 -1.6197214
0000e0 9a 7b d5 bf b9 7a f9 be f4 85 3f bf e7 12 7c 3f
       -1.6678345 -0.48726442 -0.7481377 0.9846634
0000f0 71 0b 41 3f 19 d7 ad 3f 00 2a 56 bf b9 58 1c 3f
       0.75408083 1.3581268 -0.83657837 0.6107288
000100 5f 16 cd 3f 0f a6 a9 3e 22 d6 99 3f 5b ec 8e 3f
       1.6022452 0.33134505 1.2018473 1.116588
000110 21 98 88 bf d0 6e 32 3f b0 e6 e2 3e 4d 2e 80 bf
       -1.0671426 0.69700336 0.44316626 -1.001413
000120 48 16 e9 3e 8a 71 84 3d 8a c4 97 3f ff 72 1b 3e
       0.45524812 0.06466968 1.1856854 0.15180586
000130 32 29 14 be 69 0d e3 3f 9e d2 06 3f ac 31 44 bf
       -0.1446884 1.7738467 0.52665126 -0.76638293
000140 29 b6 31 3f 9e d2 5d bb 77 9b f2 3e 77 48 96 3e
       0.6941858 -0.0033847461 0.47384235 0.2935216
000150 21 f8 b3 bc 79 04 5c bf d7 88 c6 3f 59 02 bb bf
       -0.021968903 -0.85944325 1.551051 -1.4610091
000160 b1 e4 6a 3e 9e 8c b6 3d 97 64 c0 bf 29 b7 1d be
       0.22938801 0.08913539 -1.5030698 -0.15401901
000170 4c 4a e6 be 68 1d b0 be 8d a5 05 c0 e2 fc 9f 3f
       -0.4497856 -0.34397435 -2.0882294 1.2499049
000180 6b 11 f8 bf 29 3d da be 53 d3 a6 3f a4 75 ae 3d
       -1.9380316 -0.42624786 1.3033241 0.08518532
000190 18 71 d9 be 62 fe 1a 3f 95 82 b3 3f d3 a9 6e bf
       -0.42469096 0.6054441 1.4024225 -0.9322788
0001a0 4f 6f c2 bd eb d6 be 3f 7e 03 cf 3f 53 10 2e 3f
       -0.09493887 1.4909338 1.6172941 0.6799366
0001b0 01 77 b3 3f b9 8a 68 bf 68 be fe be 77 d0 31 bf
       1.4020692 -0.90836674 -0.49754643 -0.6945872
0001c0 5c 63 4f 3f 5f 3d 46 be a0 95 c8 be de 05 55 bf
       0.81010985 -0.19359349 -0.39176655 -0.8321208
0001d0 b1 ff 54 3e 21 f9 9e bf 2c 32 3f bf 9d 59 00 40
       0.20800664 -1.2419778 -0.7468593 2.0054696
0001e0 eb d5 e4 3c d7 05 55 3f 9f f1 4f be a5 ee 1d bf
       0.027934035 0.83212036 -0.20307015 -0.6169227
0001f0 2c 48 81 3f f1 ac f4 bf b7 4b 0a bf 8c 4e bf 3f
       1.010015 -1.9115278 -0.5402178 1.4945846
000200 aa 12 8d bf 0a 16 0a be d0 18 a1 be e9 70 79 bf
       -1.1021321 -0.1348497 -0.31464243 -0.9743791
000210 fb b5 11 3f 72 9d 18 3f cc 34 0d 3f 34 e8 b2 3e
       0.56918305 0.5961524 0.55158687 0.34942782
000220 b2 0e 83 3f e7 29 56 be a8 50 6a 3f e1 b5 42 3f
       1.023886 -0.20914422 0.9152932 0.76058775
000230 aa e2 62 be e6 71 ae 3f a4 80 00 be 06 a8 7b 3f
       -0.22156778 1.3628509 -0.12549073 0.9830326
000240 fb fe 6b 3f d0 bc e6 bf 9a fe 2f 3f 16 22 a2 bf
       0.92185944 -1.8026371 0.68747866 -1.2666652
000250 19 84 53 3f 1e dd b3 3f c5 cb a5 3e 63 16 7d 3f
       0.8262344 1.4051855 0.32382026 0.98862284
000260 84 e4 6f bf e3 5d 85 3e 0c af 24 3d 6b 80 db bf
       -0.9370806 0.26048192 0.040206 -1.7148565
000270 39 c3 b5 be 62 f0 78 3f 59 02 e6 bf 86 bf 80 3f
       -0.35500506 0.97241795 -1.7969466 1.0058448
000280 b9 b8 08 3f fc 5e 38 bf 75 6a 88 3d 04 cd 03 3d
       0.53406864 -0.72019935 0.0666093 0.03217794
000290 ec 79 83 3d 76 22 f9 3f b8 8b d9 3e f8 7b 8d 3f
       0.06419739 1.9463642 0.4248941 1.1053457
0002a0 45 87 64 be 50 16 6b be f6 6d 03 bf 8a 95 1c bf
       -0.22317226 -0.2295773 -0.5133966 -0.6116568
0002b0 d6 83 a8 be b6 9c 50 bf 62 b1 a5 be 28 c9 c8 3b
       -0.32913083 -0.8148912 -0.32361895 0.0061274953
0002c0 8d 57 b2 be 09 d5 1e bf 42 47 95 bf 0e c7 ef 3f
       -0.3483242 -0.62043816 -1.1662371 1.8732622
0002d0 b9 1d a9 3f 89 9c a5 be b7 49 ed be 80 19 0f 3f
       1.3212196 -0.3234599 -0.46345302 0.55898285
0002e0 dd 5f e2 bf 61 90 04 3d 61 c9 98 3f 74 ea 87 3f
       -1.7685505 0.032364253 1.1936456 1.0618424
0002f0 39 2f b2 3f e5 1e c4 be 80 a8 bd 3f 5d bf 08 40
       1.3920661 -0.3830482 1.4817047 2.13668
000300 e5 31 7b 3f 58 27 5d bf 87 27 fd bf 4f d7 30 3f
       0.9812301 -0.8638816 -1.9777688 0.69078535
000310 22 5e 40 3f ea a2 66 3f 0e 4f 6a 3f be 9e 37 bd
       0.75143635 0.9009234 0.9152688 -0.044829123
000320 bd 3d 67 bf cc bb a3 3f 86 41 29 3f c8 6e d8 bf
       -0.9032858 1.2791686 0.66115606 -1.6908808
000330 bf c3 06 bf 3e 9c 4e 3f ef ed 17 bf 3f bc c3 bf
       -0.52642435 0.80707157 -0.5934743 -1.5291823
000340 d1 08 25 3f 18 c8 2a bf fb 60 b1 3e d9 81 53 bf
       0.6446658 -0.6671157 0.34644303 -0.82620007
000350 66 3c ac 3e d9 37 0a bf ac c8 ed 3f 07 64 9c be
       0.3363983 -0.53991467 1.8576865 -0.30545065
000360 e7 07 9e be 78 ec 52 3f 7c 49 f5 3f 11 d9 cd bf
       -0.30865404 0.8239207 1.9163051 -1.6081868
000370 5a 52 e1 be 03 8e 53 3d 63 e8 2f bf b1 03 d5 3f
       -0.44008142 0.051649105 -0.6871397 1.6641752
000380 5d bd ad be b7 f7 b1 bf 72 29 89 3f 7c ee 33 be
       -0.33933535 -1.3903722 1.0715773 -0.17571443
000390 e2 6e 81 be 6f 47 0a bf 01 25 41 3f 0d d3 b5 be
       -0.2527991 -0.5401525 0.7544709 -0.3551258
0003a0 9f d0 f0 bc 4d 26 94 bf 51 e8 e0 be 36 68 00 3f
       -0.029396353 -1.1574188 -0.43927243 0.50159013
0003b0 48 fd 94 bf 91 12 fb 3f 35 d2 9f 3f 52 c7 86 3f
       -1.1639795 1.9615041 1.2486025 1.0529578
0003c0 a9 ab ad bf 45 d7 8f bf e2 e1 76 3f cf 28 a1 bf
       -1.3568012 -1.123757 0.9643842 -1.2590579
0003d0 9b 4b e2 be 92 89 46 3f 50 7d bc bf 8c 48 a8 3f
       -0.44198307 0.77553666 -1.4725742 1.314714
0003e0 5d ad 24 3f 99 df ab 3e d2 ce c2 3f b7 36 f5 3f
       0.6432703 0.3356903 1.5219367 1.9157323
0003f0 5d 47 ad 3e d7 56 b1 bf df 1e 6a 3e 99 80 ba bf
       0.33843508 -1.3854626 0.22863339 -1.4570495

model.model.func.module4.conv.fc.layer1.weight f4 [64, 64]
000000 8a 1f 80 3e 91 39 8a bf ae 42 a4 3f fd 65 18 40
       0.25024062 -1.0798818 1.2832849 2.3812249
000010 4d f4 45 3e 90 03 08 bf 18 ca bd 3e 7e e9 47 3f
       0.19331475 -0.53130436 0.37068248 0.78090656
000020 10 8c c6 3f a8 cf 6e 3e 7e cb df 3e 19 0e 56 bf
       1.5511494 0.23321402 0.4370994 -0.8361526
000030 a5 6a fb bf 33 74 8c 3e 20 e6 a6 3f 5d 6a 55 3d
       -1.964192 0.27432403 1.3038979 0.05210339
000040 66 22 ac be 32 33 82 3f 33 40 e5 3e ed 1e fd 3f
       -0.33619994 1.0171874 0.44775543 1.9775063
000050 7b 69 b4 3e 52 5f 5d bf cd 0b 41 3d 87 6a 4f 3e
       0.35236725 -0.8647357 0.047130395 0.2025548
000060 e0 0e 6b 3f a8 db 8d 3e 98 7a b9 bf 6d f6 cf bf
       0.9181957 0.27706647 -1.4490538 -1.6247078
000070 65 e7 13 3e 01 03 4c bf f1 6f 8c 3f 4c 84 4a bf
       0.14443739 -0.79692084 1.0971662 -0.7910812
000080 f6 f1 9e bf a0 9f c9 3f 73 97 b4 bf 17 a8 a6 bf
       -1.2417591 1.5751839 -1.4108719 -1.3020047
000090 b6 98 a6 3f 4a ed 8f be 69 a1 80 bf b6 66 bc bf
       1.3015354 -0.28110725 -1.0049258 -1.4718845
0000a0 71 26 81 3f 98 c3 90 3f e9 63 c4 bd 90 ef 7b 3f
       1.0089856 1.130969 -0.09589369 0.9841242
0000b0 62 78 ef 3f 05 fb ac bf 55 d8 22 3c 0b 2c 9e bf
       1.8708613 -1.3514105 0.009939273 -1.2357191
0000c0 28 33 9f 3f 47 20 a7 bf f4 74 c1 3e 6d ff 1b bd
       1.2437487 -1.3056725 0.3778454 -0.03808539
0000d0 a0 17 d1 bf 6d 53 4d c0 72 44 1f bf f2 b3 00 3f
       -1.6335335 -3.208217 -0.62213814 0.50274575
0000e0 17 34 e9 3d 31 47 a1 bf 6c a9 32 40 dc 80 02 bf
       0.113868885 -1.2599851 2.7915907 -0.50977874
0000f0 3d 0a c2 be 32 ad 46 3f 17 02 2f 3f 8a ce 3c 3e
       -0.37898436 0.77608025 0.68362564 0.18438163
000100 92 5e ec bf 4a 28 1c bf 74 53 c4 be f9 b0 22 3f
       -1.846636 -0.60998976 -0.3834492 0.6355129
000110 14 78 5d bf 04 10 10 3f a5 8d e1 3f 53 d6 dd 3f
       -0.8651135 0.5627444 1.7621351 1.7331032
000120 15 c1 1a bf f6 f5 16 3f 9e e4 23 bf ca bb 30 3f
       -0.6045087 0.58969057 -0.6402072 0.69036543
000130 d3 e0 04 c0 e4 c2 d4 bd f3 b1 3f bf 87 b9 02 bf
       -2.0762222 -0.10388735 -0.74880904 -0.5106434
000140 60 06 75 bf 27 29 ec be 02 2a a4 bd d7 2f 30 3f
       -0.9571285 -0.46125147 -0.08015825 0.68823
000150 b2 7f ab be af 61 91 3f 05 98 7d bf 8a 75 72 be
       -0.3349586 1.1357936 -0.9906009 -0.2367765
000160 ef 45 fd bf bc 52 28 3f 4d 85 27 bf 34 14 a2 3d
       -1.9786967 0.6575124 -0.65437776 0.0791401
000170 85 8b 18 40 cf 49 cb 3f e5 24 8b 3f 70 b5 01 bf
       2.3835156 1.58819 1.0870634 -0.50667477
000180 ac 85 50 bf 25 5b 23 bf e1 ef 8b bf 82 8a 0c c0
       -0.8145397 -0.6381095 -1.093258 -2.1959538
000190 0b 65 07 c0 86 eb dc 3f 01 f3 17 bf de 87 61 c0
       -2.1155422 1.7259376 -0.5935517 -3.5239177
0001a0 65 c5 a9 bf ba 7c 15 bf fc 11 79 bf b8 83 15 bf
       -1.3263365 -0.5839344 -0.97293067 -0.5840411
0001b0 89 44 7e be cc 43 df be 77 b0 11 bf f9 9f 20 3f
       -0.24830832 -0.43606412 -0.5690989 0.627441
0001c0 ec 5c 00 bf 84 f7 f1 3f 15 fd 03 bf 5b 5f 22 3f
       -0.5014179 1.8903661 -0.5155805 0.6342675
0001d0 cb c8 95 3d b7 a7 f2 bd 97 a9 c0 3d 21 29 91 bf
       0.07313689 -0.11848395 0.09407347 -1.1340677
0001e0 bb 66 64 bf 1d 48 80 bf d1 16 f2 3f af 29 df 3e
       -0.89219254 -1.0022007 1.8913213 0.4358649
0001f0 c2 de e6 3d 1b 10 20 3e 7a 81 52 bf b6 84 13 bf
       0.112729564 0.15631144 -0.82228816 -0.57624376
000200 9d b0 aa 3f 46 49 76 be 7c 5e 85 3f 36 e9 55 3f
       1.3335148 -0.24051389 1.0419459 0.83558977
000210 2a dd c9 bd 86 4f b3 bf 27 9b 85 bf 50 68 9b bf
       -0.09856637 -1.4008644 -1.0437974 -1.2141209
000220 8e 62 86 be 00 81 50 bf f7 81 b2 bd 61 30 b4 bd
       -0.26247066 -0.8144684 -0.08716195 -0.0879829
000230 b3 51 8d 3f d9 81 be bf 3f 52 3d 3f 49 7a a4 3f
       1.1040558 -1.4883376 0.7395362 1.2849818
000240 6f 36 74 be d3 44 bb 3e 97 9d a0 3e 08 b6 8b 3f
       -0.2384889 0.36575946 0.31370232 1.0914927
000250 77 aa c8 3f 5d 80 b6 3f 92 ad 31 bf 8c 00 a4 3e
       1.5677022 1.4257923 -0.6940547 0.32031667
000260 7a 1a 1f bf db ac 3e bf 35 e9 4b bf 11 1e 35 bf
       -0.62149775 -0.74482507 -0.7965272 -0.70749
000270 9d 7f f0 be 24 1f 24 3e a2 6f e1 be c8 bd 4a c0
       -0.4697236 0.16027504 -0.44030482 -3.1678333
000280 a1 a5 3f 3f 42 fd 78 3f c1 6f 38 be fa 53 e7 be
       0.74862105 0.9726144 -0.1801138 -0.45181257
000290 bf 20 e4 bf c8 1a d7 3d df 90 0d 3f 82 32 9d 3e
       -1.7822493 0.10503155 0.5529918 0.30702597
0002a0 2f 60 97 3e 02 df 78 bf 81 d7 06 3e f8 16 70 3f
       0.2956557 -0.9721528 0.13168146 0.9378505
0002b0 7a af d0 be eb 89 a7 be d3 ca 1e be 88 10 8a bf
       -0.40758878 -0.3272241 -0.15507059 -1.0786295
0002c0 9b d0 96 bf 37 39 ea 3c da b1 1c 3f 3e 05 0a c0
       -1.1782411 0.028591735 0.6120888 -2.15657
0002d0 c4 a3 49 bf c2 ae 8e bf cd 0a dc bd 6c c3 b6 3f
       -0.7876551 -1.1147082 -0.107442476 1.4278388
0002e0 17 b6 c7 bc 4b 8a a4 3f 9f 04 76 bf ca 56 51 3e
       -0.02437882 1.2854704 -0.961008 0.20443264
0002f0 5a e5 20 be 78 f6 8a be a5 6c fa 3e 9f 96 88 3f
       -0.1571249 -0.27141166 0.48911014 1.0670966
000300 76 f2 c9 3f 3f be 68 3f 4b 88 a4 bf 43 7f d7 be
       1.5777118 0.9091529 -1.2854093 -0.4208928
000310 ce 7a 13 bf 32 1a 28 bf 42 9a 5d 3f f8 81 f1 be
       -0.5760926 -0.6566497 0.86563504 -0.4716947
000320 d6 12 87 bf 41 65 06 bf 88 3c d9 3e 87 13 e6 be
       -1.0552623 -0.5249825 0.42428994 -0.44936773
000330 3f d3 b7 bc 9e 31 44 3f ff f4 81 bf 9b d0 02 c0
       -0.022439597 0.7663821 -1.0152892 -2.0439823
000340 3e 81 ca 3d 50 be 9d bf f7 7f cb be b5 56 3b 3f
       0.09887932 -1.2323704 -0.39746067 0.7317918
000350 44 80 c3 bf ef 70 97 3e 79 17 eb 3e 58 2d 84 3d
       -1.5273519 0.2957835 0.45916346 0.06453961
000360 ed 41 a8 bf 47 df e6 3e 2b bf 76 3f c5 60 8b be
       -1.3145119 0.45092222 0.9638545 -0.27222267
000370 64 23 86 3f 6d 62 8f bf b4 3a 48 bf d4 8e a6 bf
       1.047955 -1.1201912 -0.78214574 -1.3012338
000380 2a 8a a8 bf 62 96 d6 3f 6a 66 b7 3f c7 ae 45 bf
       -1.3167164 1.6764643 1.4328129 -0.77219814
000390 2f 98 e3 3e 9b b0 4f bf 74 c6 1a 3f 94 31 70 3f
       0.44452044 -0.81128854 0.60459065 0.9382565
0003a0 16 73 93 3f c1 b9 b9 be e2 90 75 bf 87 85 a0 3f
       1.1519496 -0.3627453 -0.959242 1.2540749
0003b0 ae 1c 5f 3f 57 ce c8 bf 24 bb 7a 3f c5 42 f5 3e
       0.87153137 -1.568797 0.97941804 0.47902504
0003c0 f3 48 81 bd 23 3f 5d be 20 1c c4 3f 4e 2c 33 bd
       -0.06312742 -0.21606116 1.5321083 -0.043743424
0003d0 8e 9b d3 bf 05 87 17 3f 64 83 c3 be 6f 47 f7 3c
       -1.6531847 0.591904 -0.3818618 0.03018543
0003e0 15 05 c9 bf fa 3e d6 bf b7 3d d6 3f 95 4b 35 3f
       -1.5704676 -1.6737969 1.6737584 0.70818454
0003f0 85 c8 24 bd 32 5d e0 bf 9a 71 76 be 7d 1f c9 bf
       -0.040230293 -1.7528441 -0.24066773 -1.5712734

model.model.func.module4.conv.fc.layer2.weight f4 [64, 96]
000000 b2 78 d6 3f 1d 57 2c 3f 42 64 8d bf aa c8 b3 be
       1.6755583 0.67320424 -1.1046221 -0.35114032
000010 d8 ef 38 40 c6 47 41 bf 00 2a 16 3f b4 f6 47 3e
       2.889639 -0.7550014 0.58657837 0.19527704
000020 c5 ff 05 bf a0 35 21 3f ef 50 00 bf c0 51 28 3f
       -0.523434 0.6297245 -0.50123495 0.6574974
000030 e0 51 20 3f 22 3b e9 bf 01 37 a8 3f 47 30 68 bd
       0.6262493 -1.8221171 1.3141786 -0.056686666
000040 f2 a2 ad bf aa b9 0e bf 83 ee 80 3f 51 aa b2 bf
       -1.3565352 -0.5575205 1.0072788 -1.3958226
000050 20 86 96 3f ee d7 f5 be 9f 2c 75 3f e6 3f 34 40
       1.1759682 -0.48016304 0.9577121 2.8164
000060 c7 c9 02 bf 3a be c5 3d f8 ef 0f bf 8f 9d 03 c0
       -0.5108914 0.096554235 -0.5622554 -2.0564916
000070 95 61 c6 bd ac 93 03 3f 06 43 0c be b7 99 8b be
       -0.09686581 0.51397204 -0.13697442 -0.27265713
000080 9b 8e 3c bf cc 00 64 bf ef 2c 29 bf c2 c4 08 c0
       -0.736551 -0.89063716 -0.6608419 -2.1370091
000090 88 47 1a 3f 06 04 d3 3e 29 c8 18 3e d0 63 01 3e
       0.602654 0.41214007 0.14920105 0.12635732
0000a0 5c 89 94 bf 05 df ba bf 05 41 f4 3e 39 87 55 bf
       -1.1604419 -1.459931 0.47705856 -0.8340946
0000b0 f9 0c d5 bd 0e 08 8d 3f 20 3c b0 3e 5a c7 84 3f
       -0.10402865 1.1018083 0.34420872 1.0373337
0000c0 86 ab 94 bf d3 3f 88 3f e8 81 85 3e 3d 13 15 c0
       -1.1614845 1.0644478 0.26075673 -2.3292992
0000d0 bd c5 eb bf 74 e2 07 3f 82 ce 8c be 61 94 68 bd
       -1.841972 0.53079915 -0.27501303 -0.05678213
0000e0 a6 0a b8 bf 91 af ac bf fb 3a 82 be e2 a8 e9 3f
       -1.437825 -1.3491079 -0.25435624 1.8254664
0000f0 c2 a3 8f bf c3 35 4f bf 28 98 df bd 0c 27 9f 3e
       -1.122185 -0.8094141 -0.109176934 0.31084478
000100 d5 36 e4 be 18 51 46 3f 57 85 fa 3e ca 8d bd be
       -0.44573084 0.7746749 0.48929855 -0.3702224
000110 b4 59 11 40 b3 78 69 be bb f6 bb 3f 3d 89 8f 3d
       2.2711 -0.2279995 1.4684671 0.07008598
000120 5c fa 29 bf 6b 30 db 3f 53 e7 c4 3d 98 55 05 c0
       -0.66397643 1.7124151 0.09614434 -2.0833492
000130 d9 9f 4f 3f 9c 89 4a bf f8 3b 80 bf 27 80 d5 be
       0.81103283 -0.79116225 -1.0018301 -0.41699335
000140 2e 4c f6 3e d7 e0 22 bf 80 d4 8f 3f ec b1 ac bf
       0.48104995 -0.6362433 1.1236725 -1.3491797
000150 dd 84 d2 3e 0e 2b 8d be 21 16 93 3e b0 12 e1 be
       0.41116992 -0.2757191 0.2872782 -0.4395957
000160 d4 63 0e bf 20 28 27 40 78 cd 31 3f f7 8f 83 3e
       -0.55621076 2.611824 0.69454145 0.25695774
000170 2e f9 47 bf 06 8e 26 be 8d 48 2f 3e 01 c5 c3 bf
       -0.78114593 -0.16265115 0.1711752 -1.5294496
000180 38 fa 9f 3e b8 bd 3e 3f b9 da 52 3e 9a aa aa 3f
       0.3124559 0.7450824 0.20591249 1.3333313
000190 33 c5 48 bf 72 00 53 3f 86 0a 5b be eb 61 c2 bf
       -0.784259 0.82422554 -0.21390733 -1.5186132
0001a0 26 00 74 be bc 0b 5f bf 72 3e ff 3f 6a ab f6 3e
       -0.23828182 -0.8712728 1.9940932 0.48177654
0001b0 3c 29 5b 3f 9a 86 3b bf 50 d9 c7 bf 14 1b 8a bf
       0.85609794 -0.7325226 -1.5613194 -1.0789514
0001c0 10 8e 0c 3f a4 b4 ed 3d 7f ea 27 3f 76 d2 0c 3d
       0.5490427 0.1160672 0.6559219 0.0343804
0001d0 bb 09 82 be 3c 1d 34 bf a0 fb d2 3e 24 39 ee 3e
       -0.2539805 -0.7035711 0.412076 0.4652797
0001e0 15 d4 4c be 63 e6 06 bf a7 27 16 c0 52 99 fe be
       -0.20002778 -0.5269529 -2.3461702 -0.4972635
0001f0 ac 49 89 3f 75 18 b7 bf 6e 72 f1 3f 9e f5 a2 3e
       1.0725608 -1.4304339 1.8863046 0.31828016
000200 6b 09 e5 3e cf 67 2d bf 9d ca 19 be 14 b2 9b bd
       0.44733748 -0.67736524 -0.15018697 -0.07602325
000210 46 74 84 bf 8b 57 ba be 5c 45 4a bf 03 13 22 3f
       -1.0347984 -0.36394915 -0.79012084 0.6331026
000220 95 95 84 bf de 66 bd 3f df c7 95 bf 98 96 cf 3d
       -1.0358149 1.4797018 -1.1701621 0.10136145
000230 27 02 c1 3e ad 79 57 bf d1 cd 87 3f 18 5b 16 c0
       0.37696955 -0.8417004 1.0609685 -2.34931
000240 cc 46 3c bc 27 d0 3a 3d 81 d5 7d bf b8 52 a6 3e
       -0.011491489 0.045608666 -0.99153906 0.32484984
000250 20 96 fc 3d 26 44 f3 3d cc 7b 29 bf 89 4f dc bf
       0.123333216 0.11878233 -0.66204524 -1.7211772
000260 c6 47 36 bf 5e 47 71 bf 60 c2 1e bf a2 51 45 be
       -0.7120327 -0.9424952 -0.6201534 -0.19269422
000270 bf 45 39 be f4 21 b9 3e c0 dd e3 bd 0d 9e 57 bf
       -0.18093012 0.36158717 -0.1112628 -0.8422554
000280 a8 78 93 bf 50 b0 83 bf c5 10 a3 3c f1 fa 23 3f
       -1.1521196 -1.0288181 0.019905457 0.6405478
000290 47 5d 49 be 61 ba e9 be cc 93 d2 bc 88 42 f6 3e
       -0.19664489 -0.45650008 -0.02570524 0.48097634
0002a0 69 87 fd 3f 83 6c 70 bf df 6b 05 40 e2 e8 ce 3f
       1.9806949 -0.93915576 2.084709 1.616482
0002b0 ee 5e 05 40 fd 4f 5a bc 75 1f f9 be b0 9d 31 bf
       2.083919 -0.013324735 -0.48656812 -0.6938124
0002c0 85 7e 3b bf 40 f6 cb bf b4 73 d1 be 5f 02 0e bf
       -0.7323993 -1.5934525 -0.40908587 -0.5547237
0002d0 07 c3 1c 3d 75 5b d1 bf e7 20 19 bf a9 54 e2 bf
       0.03827193 -1.6356035 -0.5981583 -1.7682086
0002e0 f8 66 41 bf 33 4b da 3e 24 d1 ae 3d ba 10 7e be
       -0.7554774 0.42635497 0.08535984 -0.24811068
0002f0 aa 9d dc 3f 6a 66 bf be 28 2b e4 bc ff fe 8e 3e
       1.7235615 -0.37382823 -0.02785261 0.27928922
000300 18 34 95 bf 4e c5 9f 3e 2f 96 6f 3f 06 1a 59 bf
       -1.1656523 0.3120522 0.93588537 -0.84805334
000310 c6 95 1b bf 83 19 26 bf 9e 2c 4f be e0 d4 dc 3e
       -0.6077541 -0.6488268 -0.20231864 0.4313116
000320 16 ba 3b bf 6f 26 a8 3f 94 e7 0a c0 54 d4 78 bf
       -0.7333082 1.3136729 -2.1703844 -0.97198987
000330 c3 ea 01 40 1a ea 06 c0 d6 b2 a8 be cb 21 7a 3e
       2.0299537 -2.1080384 -0.3294894 0.24426953
000340 a8 d6 ea 3e 4c 38 1b 3f d5 d4 57 bd 9f 1d bc be
       0.45866895 0.6063278 -0.052693207 -0.3674135
000350 66 11 a5 be f6 a6 d2 be f2 2c 8f bf 02 e7 f7 bf
       -0.32239836 -0.41143006 -1.1185591 -1.9367373
000360 79 18 40 bf d5 39 e7 bf 2f 72 4a bf fa 25 be 3f
       -0.7503734 -1.8064524 -0.7908048 1.485534
000370 27 cf e9 3e 0b 81 bb be b5 84 88 bf 06 a5 94 bf
       0.45665857 -0.3662189 -1.0665499 -1.1612861
000380 e7 85 a1 3e 29 5b 31 bf 72 12 4c bf 6a 43 e4 be
       0.31547472 -0.69279724 -0.79715645 -0.44582683
000390 db 49 88 3f 80 07 2e 3f ec e1 80 3e 21 55 8f be
       1.0647539 0.67980194 0.25172365 -0.27994636
0003a0 c5 70 29 bf c8 b2 d6 bf 36 59 00 bf 62 ec 44 3f
       -0.661877 -1.677331 -0.50136125 0.7692319
0003b0 71 8d 3e 3f e6 6e d8 bf 6f ed d3 3f f9 d6 dd be
       0.7443457 -1.6908844 1.6556834 -0.43328074
0003c0 d3 4e d5 be 09 6c b5 bf 9e 6d 6b bd 19 8b 61 3f
       -0.416617 -1.4173595 -0.057477586 0.8810287
0003d0 6b 96 0d bf db 66 fc 3e 81 24 33 bf ee d4 b9 bf
       -0.55307645 0.49297222 -0.69977576 -1.4518106
0003e0 fe 99 c6 bf 85 15 c6 3f 6c 12 2e 3f 0f 75 05 c0
       -1.5515745 1.5475317 0.6799686 -2.0852697
0003f0 2d 38 ab 3e a8 ec 07 bf 42 c7 52 3f f0 d7 44 3f
       0.33441296 -0.53095484 0.82335293 0.76891994

model.model.func.module4.conv.tp.output_mask f4 [288]
000000 00 00 80 3f 00 00 80 3f 00 00 80 3f 00 00 80 3f
       1.0 1.0 1.0 1.0
000010 00 00 80 3f 00 00 80 3f 00 00 80 3f 00 00 80 3f
       1.0 1.0 1.0 1.0
000020 00 00 80 3f 00 00 80 3f 00 00 80 3f 00 00 80 3f
       1.0 1.0 1.0 1.0
000030 00 00 80 3f 00 00 80 3f 00 00 80 3f 00 00 80 3f
       1.0 1.0 1.0 1.0
000040 00 00 80 3f 00 00 80 3f 00 00 80 3f 00 00 80 3f
       1.0 1.0 1.0 1.0
000050 00 00 80 3f 00 00 80 3f 00 00 80 3f 00 00 80 3f
       1.0 1.0 1.0 1.0
000060 00 00 80 3f 00 00 80 3f 00 00 80 3f 00 00 80 3f
       1.0 1.0 1.0 1.0
000070 00 00 80 3f 00 00 80 3f 00 00 80 3f 00 00 80 3f
       1.0 1.0 1.0 1.0
000080 00 00 80 3f 00 00 80 3f 00 00 80 3f 00 00 80 3f
       1.0 1.0 1.0 1.0
000090 00 00 80 3f 00 00 80 3f 00 00 80 3f 00 00 80 3f
       1.0 1.0 1.0 1.0
0000a0 00 00 80 3f 00 00 80 3f 00 00 80 3f 00 00 80 3f
       1.0 1.0 1.0 1.0
0000b0 00 00 80 3f 00 00 80 3f 00 00 80 3f 00 00 80 3f
       1.0 1.0 1.0 1.0
0000c0 00 00 80 3f 00 00 80 3f 00 00 80 3f 00 00 80 3f
       1.0 1.0 1.0 1.0
0000d0 00 00 80 3f 00 00 80 3f 00 00 80 3f 00 00 80 3f
       1.0 1.0 1.0 1.0
0000e0 00 00 80 3f 00 00 80 3f 00 00 80 3f 00 00 80 3f
       1.0 1.0 1.0 1.0
0000f0 00 00 80 3f 00 00 80 3f 00 00 80 3f 00 00 80 3f
       1.0 1.0 1.0 1.0
000100 00 00 80 3f 00 00 80 3f 00 00 80 3f 00 00 80 3f
       1.0 1.0 1.0 1.0
000110 00 00 80 3f 00 00 80 3f 00 00 80 3f 00 00 80 3f
       1.0 1.0 1.0 1.0
000120 00 00 80 3f 00 00 80 3f 00 00 80 3f 00 00 80 3f
       1.0 1.0 1.0 1.0
000130 00 00 80 3f 00 00 80 3f 00 00 80 3f 00 00 80 3f
       1.0 1.0 1.0 1.0
000140 00 00 80 3f 00 00 80 3f 00 00 80 3f 00 00 80 3f
       1.0 1.0 1.0 1.0
000150 00 00 80 3f 00 00 80 3f 00 00 80 3f 00 00 80 3f
       1.0 1.0 1.0 1.0
000160 00 00 80 3f 00 00 80 3f 00 00 80 3f 00 00 80 3f
       1.0 1.0 1.0 1.0
000170 00 00 80 3f 00 00 80 3f 00 00 80 3f 00 00 80 3f
       1.0 1.0 1.0 1.0
000180 00 00 80 3f 00 00 80 3f 00 00 80 3f 00 00 80 3f
       1.0 1.0 1.0 1.0
000190 00 00 80 3f 00 00 80 3f 00 00 80 3f 00 00 80 3f
       1.0 1.0 1.0 1.0
0001a0 00 00 80 3f 00 00 80 3f 00 00 80 3f 00 00 80 3f
       1.0 1.0 1.0 1.0
0001b0 00 00 80 3f 00 00 80 3f 00 00 80 3f 00 00 80 3f
       1.0 1.0 1.0 1.0
0001c0 00 00 80 3f 00 00 80 3f 00 00 80 3f 00 00 80 3f
       1.0 1.0 1.0 1.0
0001d0 00 00 80 3f 00 00 80 3f 00 00 80 3f 00 00 80 3f
       1.0 1.0 1.0 1.0
0001e0 00 00 80 3f 00 00 80 3f 00 00 80 3f 00 00 80 3f
       1.0 1.0 1.0 1.0
0001f0 00 00 80 3f 00 00 80 3f 00 00 80 3f 00 00 80 3f
       1.0 1.0 1.0 1.0
000200 00 00 80 3f 00 00 80 3f 00 00 80 3f 00 00 80 3f
       1.0 1.0 1.0 1.0
000210 00 00 80 3f 00 00 80 3f 00 00 80 3f 00 00 80 3f
       1.0 1.0 1.0 1.0
000220 00 00 80 3f 00 00 80 3f 00 00 80 3f 00 00 80 3f
       1.0 1.0 1.0 1.0
000230 00 00 80 3f 00 00 80 3f 00 00 80 3f 00 00 80 3f
       1.0 1.0 1.0 1.0
000240 00 00 80 3f 00 00 80 3f 00 00 80 3f 00 00 80 3f
       1.0 1.0 1.0 1.0
000250 00 00 80 3f 00 00 80 3f 00 00 80 3f 00 00 80 3f
       1.0 1.0 1.0 1.0
000260 00 00 80 3f 00 00 80 3f 00 00 80 3f 00 00 80 3f
       1.0 1.0 1.0 1.0
000270 00 00 80 3f 00 00 80 3f 00 00 80 3f 00 00 80 3f
       1.0 1.0 1.0 1.0
000280 00 00 80 3f 00 00 80 3f 00 00 80 3f 00 00 80 3f
       1.0 1.0 1.0 1.0
000290 00 00 80 3f 00 00 80 3f 00 00 80 3f 00 00 80 3f
       1.0 1.0 1.0 1.0
0002a0 00 00 80 3f 00 00 80 3f 00 00 80 3f 00 00 80 3f
       1.0 1.0 1.0 1.0
0002b0 00 00 80 3f 00 00 80 3f 00 00 80 3f 00 00 80 3f
       1.0 1.0 1.0 1.0
0002c0 00 00 80 3f 00 00 80 3f 00 00 80 3f 00 00 80 3f
       1.0 1.0 1.0 1.0
0002d0 00 00 80 3f 00 00 80 3f 00 00 80 3f 00 00 80 3f
       1.0 1.0 1.0 1.0
0002e0 00 00 80 3f 00 00 80 3f 00 00 80 3f 00 00 80 3f
       1.0 1.0 1.0 1.0
0002f0 00 00 80 3f 00 00 80 3f 00 00 80 3f 00 00 80 3f
       1.0 1.0 1.0 1.0
000300 00 00 80 3f 00 00 80 3f 00 00 80 3f 00 00 80 3f
       1.0 1.0 1.0 1.0
000310 00 00 80 3f 00 00 80 3f 00 00 80 3f 00 00 80 3f
       1.0 1.0 1.0 1.0
000320 00 00 80 3f 00 00 80 3f 00 00 80 3f 00 00 80 3f
       1.0 1.0 1.0 1.0
000330 00 00 80 3f 00 00 80 3f 00 00 80 3f 00 00 80 3f
       1.0 1.0 1.0 1.0
000340 00 00 80 3f 00 00 80 3f 00 00 80 3f 00 00 80 3f
       1.0 1.0 1.0 1.0
000350 00 00 80 3f 00 00 80 3f 00 00 80 3f 00 00 80 3f
       1.0 1.0 1.0 1.0
000360 00 00 80 3f 00 00 80 3f 00 00 80 3f 00 00 80 3f
       1.0 1.0 1.0 1.0
000370 00 00 80 3f 00 00 80 3f 00 00 80 3f 00 00 80 3f
       1.0 1.0 1.0 1.0
000380 00 00 80 3f 00 00 80 3f 00 00 80 3f 00 00 80 3f
       1.0 1.0 1.0 1.0
000390 00 00 80 3f 00 00 80 3f 00 00 80 3f 00 00 80 3f
       1.0 1.0 1.0 1.0
0003a0 00 00 80 3f 00 00 80 3f 00 00 80 3f 00 00 80 3f
       1.0 1.0 1.0 1.0
0003b0 00 00 80 3f 00 00 80 3f 00 00 80 3f 00 00 80 3f
       1.0 1.0 1.0 1.0
0003c0 00 00 80 3f 00 00 80 3f 00 00 80 3f 00 00 80 3f
       1.0 1.0 1.0 1.0
0003d0 00 00 80 3f 00 00 80 3f 00 00 80 3f 00 00 80 3f
       1.0 1.0 1.0 1.0
0003e0 00 00 80 3f 00 00 80 3f 00 00 80 3f 00 00 80 3f
       1.0 1.0 1.0 1.0
0003f0 00 00 80 3f 00 00 80 3f 00 00 80 3f 00 00 80 3f
       1.0 1.0 1.0 1.0

model.model.func.module4.conv.linear_2.weight f4 [5120]
000000 85 bc 4f bf e5 48 64 bf 32 28 1c bf c6 46 57 3f
       -0.8114703 -0.8917373 -0.60998833 0.84092367
000010 07 97 e2 3d e8 bd 87 3f 0d eb ba be ef 41 c9 3f
       0.110639624 1.060483 -0.36507455 1.5723246
000020 8e b9 3d 3e 06 53 e9 3f 01 72 40 3f 67 a9 74 3d
       0.18527815 1.8228462 0.75173956 0.059731867
000030 4a a9 74 3f 20 d4 82 3f fa b5 36 3e 40 39 b1 bf
       0.95570815 1.0220985 0.17842856 -1.3845596
000040 f8 b0 f5 3e 5a c5 07 c0 0f 17 55 bf 7e 79 21 3f
       0.4798658 -2.1214204 -0.8323831 0.6307601
000050 73 dd 75 3f da 59 f4 3e 89 ec da 3c 88 4c 52 3f
       0.9604103 0.477248 0.026724117 0.8214803
000060 02 b0 2e 3e 4c ab 2e c0 b4 a0 f1 be db 36 a7 bf
       0.17059329 -2.7292051 -0.4719292 -1.3063616
000070 12 4a 16 40 f0 ce 88 bf b9 b4 8d bf a6 0f 0c bf
       2.348271 -1.0688152 -1.1070777 -0.5471138
000080 df 9a e1 3f fd de b3 3f 0e 57 6c bf 79 ed 91 3f
       1.7625388 1.4052426 -0.92320335 1.1400596
000090 e0 5d 9c 3f 19 b9 96 be e3 3f f1 3f d2 d5 b1 bf
       1.2216148 -0.29438093 1.8847622 -1.3893378
0000a0 fb 84 06 3e a8 fc 5c bf a4 d1 d5 3e 3d ca 72 3f
       0.13136666 -0.8632302 0.41761506 0.9483984
0000b0 e9 80 bc 3e ec bf 09 bf 1b ef 94 3f 35 c0 85 3f
       0.368171 -0.53808475 1.1635469 1.0449282
0000c0 fe a7 f2 bf 50 9a 1d bf f9 fc e5 be e8 8a 14 40
       -1.8957517 -0.6156359 -0.44919565 2.3209782
0000d0 62 0b 90 3f cc 5d 7a 3d fa 57 e7 bf e1 f8 1c 3d
       1.1253474 0.061124608 -1.8073723 0.038323287
0000e0 e9 e2 8b 3f 63 b3 d2 be 3e 5e aa be da e0 ca 3f
       1.0928622 -0.41152486 -0.33275026 1.5849869
0000f0 23 70 2f be 18 95 8f bf dd be 00 3f 44 45 f7 3e
       -0.1713262 -1.1217375 0.50291234 0.48295033
000100 b8 41 70 bf 4e 5c 85 bf b0 43 40 3e 7f 6b 9d 3f
       -0.9385028 -1.0418794 0.1877582 1.229843
000110 ce 62 eb 3e b8 01 2e 3f 98 cd 5f bf 1b 9f f9 be
       0.4597382 0.6797137 -0.87423086 -0.487542
000120 fe 41 1b 3f c9 67 1f bf 59 4e 7f 3f bd 54 17 bf
       0.6064757 -0.6226774 0.99728924 -0.59113675
000130 d4 ef f1 3f df 5f 97 bd 86 86 4d bf 04 7e 58 bf
       1.8901315 -0.07391333 -0.8028339 -0.84567285
000140 4d ec 70 be 75 91 17 bd 51 dd bc bf 17 ae 90 3e
       -0.23527642 -0.037003953 -1.475504 0.2825782
000150 ef e4 8e bc 78 87 d8 be d8 1f dc be 8a ea 93 3e
       -0.017443148 -0.42290854 -0.42993045 0.28889877
000160 80 21 5a bf 9d 57 ec 3e 2b 37 8c bf f8 f2 8b 3e
       -0.85207367 0.46160594 -1.0954336 0.27333808
000170 c4 0d de be 46 d5 a3 3e df 24 6f 3f 42 5b 27 bf
       -0.43369877 0.31998652 0.93415636 -0.65373623
000180 cb c8 d3 3e 4f 6c bd bf a3 73 bc 3f 79 1b 5e bf
       0.4136413 -1.4798678 1.472279 -0.8676067
000190 9b a6 00 bf 4c 5c b8 be 59 18 27 bf 6c e3 82 bf
       -0.5025422 -0.36007917 -0.65271527 -1.0225654
0001a0 de cd eb bf 20 a5 7c 3e c2 ad 00 bf b2 cc 13 bf
       -1.8422201 0.24672365 -0.50265133 -0.57734215
0001b0 42 dd e9 3e 10 aa e8 3d a4 c1 85 be 14 ea 44 bf
       0.4567662 0.11360562 -0.261243 -0.76919675
0001c0 74 30 db be 5c 72 c7 3e 10 cc c3 be 68 7f b4 bf
       -0.42810404 0.38954437 -0.38241625 -1.4101381
0001d0 f3 c4 2a bf 8b 57 dd be 4d 54 82 3f 1e 1f fc 3e
       -0.6670677 -0.43230852 1.0181977 0.4924249
0001e0 72 84 20 40 e8 82 ff be fb 1e 86 bf b0 c5 cb be
       2.5080838 -0.4990456 -1.0478204 -0.3979926
0001f0 dc d0 8e 3e 64 84 c4 bf 59 c2 ef 3e 75 76 1e 3f
       0.27893722 -1.5352902 0.46827963 0.618995
000200 d7 37 27 40 ee b9 f9 b9 24 8d 9a 3d b1 34 9c bf
       2.6127832 -0.0004763151 0.07546452 -1.220358
000210 37 65 2e 3c 32 50 b9 3e 9b 5f ad 3f b6 59 0a 3e
       0.010644249 0.36193997 1.3544801 0.13510785
000220 c3 1c 08 40 8f ec 92 be aa 37 40 be b9 cd 94 3f
       2.1267555 -0.28696105 -0.18771234 1.1625282
000230 75 c3 12 3f 46 aa ed be 8d 1b 41 bf c0 50 14 bf
       0.57329494 -0.4641897 -0.75432664 -0.57935715
000240 38 76 35 3f 74 ee 54 be 40 63 83 3e 1c b9 d0 3e
       0.7088351 -0.20794088 0.2566166 0.40766227
000250 2e cd 08 bf be 47 13 3e 3e bf 8e 3e 6f b9 8b bf
       -0.5343808 0.14382836 0.2788028 -1.0915965
000260 bd 0b 0e c0 74 5e 2b 3f 57 d3 35 3f 1c b8 25 3f
       -2.2194664 0.66941 0.71025604 0.64734054
000270 39 34 69 3f 36 81 06 c0 e8 aa 85 bf 48 75 cc be
       0.9109531 -2.1016364 -1.0442781 -0.39933228
000280 36 bf ea bd 25 f6 2e 3f af a9 cc 3e 7c 75 84 3f
       -0.11462252 0.68344337 0.39973208 1.0348353
000290 2e c9 5a 3f f9 ad c6 3f e2 c7 d6 3e 64 01 57 3e
       0.85463226 1.5521842 0.41949373 0.20996624
0002a0 7a 5d 4b bf c0 61 6c 3e 25 42 07 bf 00 cb de be
       -0.7943951 0.23084164 -0.52835304 -0.43514252
0002b0 2d 8a 40 be ac 00 f9 3d 5c c4 c8 be 82 b5 bf bf
       -0.1880271 0.12158331 -0.3921231 -1.4977267
0002c0 6c 44 a0 bd 82 fc 99 3e 9a fa b6 bf cd 62 58 be
       -0.078255504 0.3007546 -1.4295228 -0.2113144
0002d0 4e d4 e0 3e 0d 43 24 bf 15 2d 09 3e 9b 1a c4 3c
       0.43911976 -0.6416481 0.13396104 0.023938468
0002e0 7b 63 01 3f 86 ee e7 be 42 7d 19 c0 e9 ce c8 be
       0.5054242 -0.45299166 -2.3982701 -0.3922036
0002f0 bc 9f 17 bf 90 74 06 be 93 87 fb 3e bb 1b 5b bf
       -0.5922811 -0.13130403 0.49126872 -0.8558919
000300 46 70 8d bf a5 e9 5d bf 0e 0a e0 bb 19 bc b7 be
       -1.1049888 -0.8668464 -0.006837136 -0.35885695
000310 06 c2 0c bd b4 71 b2 bf 4c af 70 3f 88 c9 2c 3e
       -0.034364723 -1.394095 0.9401748 0.16873753
000320 9a c3 b0 3f c4 2e 9e 3e 03 b6 d8 bf fa 97 9a bf
       1.3809693 0.30895054 -1.6930546 -1.207763
000330 a1 a6 17 bf 67 4f 0e 3e 8a 31 e7 bf c3 27 5f 3e
       -0.5923863 0.13897477 -1.8061993 0.21792512
000340 ab 9d a8 3f a2 37 5c 3f c1 bf d2 bf c0 8c 06 c0
       1.3173116 0.8602239 -1.6464769 -2.1023407
000350 11 f0 df bd d8 96 65 3f 9f 69 ae bf 40 db 65 bf
       -0.10934461 0.89683294 -1.3625983 -0.89787674
000360 94 7e ae bf 59 a9 5d 3f a4 bb ab be fe b6 c1 3e
       -1.3632379 0.8658653 -0.33541596 0.37834924
000370 6f 0a 6a bf d5 7d 06 3f 3c 4f 0a bf 85 df 10 be
       -0.9142217 0.52535754 -0.5402715 -0.14147766
000380 fe 59 22 bf 3c 8e 0a c0 96 78 bf 3f a8 44 3a bf
       -0.6341857 -2.1649313 1.4958675 -0.7276101
000390 7d b1 c5 bf cf 68 05 c0 c4 6b 32 40 80 2b f5 3f
       -1.544479 -2.084522 2.7878275 1.91539
0003a0 79 9c ae 3f 54 15 da 3f f3 70 21 bf 3b 7f 42 3f
       1.3641502 1.7037759 -0.6306297 0.7597539
0003b0 ed 8b 76 bd aa dd bb bf 43 62 78 bf 54 3c be 3e
       -0.060192037 -1.4677022 -0.97024935 0.37155402
0003c0 33 c6 c8 bf f0 f3 0a c0 bb 86 49 3f fd b5 2d bf
       -1.5685486 -2.1711388 0.7872121 -0.6785582
0003d0 51 2c 3b 3f 6c ff f3 3d 47 7f e0 be cf a5 9f 3f
       0.73114496 0.11913952 -0.43847105 1.2472476
0003e0 47 d4 3a be a6 c4 57 bf 3f 0e 54 3f 7d b8 2c 3f
       -0.1824504 -0.84284437 0.8283424 0.67469007
0003f0 17 73 b0 3e 60 7b 2c bf d8 e2 d0 be c1 b4 85 bd
       0.34462807 -0.67375755 -0.40798068 -0.06528617
