ETN/allegro_module/results/aspirin/example/best_model.pth (torch, 10043 bytes, 9 tensors)

model.model.func.radial_basis.basis._mean f4 [8]
0	0x3dd2aa24	0.10286358
1	0x3da143c9	0.07874257
2	0x3dbe6aa8	0.09297687
3	0x3da99899	0.08281059
4	0x3db9af7c	0.09066674
5	0x3dac7352	0.08420433
6	0x3db78fd5	0.08962981
7	0x3dadd9ee	0.084888324

model.model.func.radial_basis.basis._inv_std f4 [8]
0	0x418e28d5	17.769938
1	0x40d44410	6.6333084
2	0x40a9de24	5.308367
3	0x408bafbe	4.365203
4	0x407886e8	3.883234
5	0x405ea255	3.478658
6	0x404d9ecc	3.2128172
7	0x403e7c9c	2.9763556

model.model.func.radial_basis.basis.basis.bessel_weights f4 [8]
0	0x404ee92f	3.2329824
1	0x40cd5022	6.416032
2	0x4119866b	9.595317
3	0x414b8869	12.720803
4	0x417be655	15.743733
5	0x4197a59d	18.955866
6	0x41aeebde	21.86517
7	0x41cc6f4c	25.554344

model.model.func.edge_features_F.A f4 [3, 4, 9]
0	0x3d578d9f	0.052625295
1	0xbcb6f591	-0.022333892
2	0xbe057923	-0.13034491
3	0x3e6ac8b0	0.22928119
4	0x3e22b351	0.15888716
5	0x3dcf28d0	0.10115206
6	0x3e987437	0.29776165
7	0xbdeaf976	-0.11473362
8	0x3de66cc6	0.11251216
9	0xbe0369b6	-0.12833294
10	0xbe39d1b7	-0.18146406
11	0x3eb00c99	0.3438461
12	0x3d9c94e7	0.07645588
13	0xbeae2aef	-0.3401713
14	0xbe5b2bf8	-0.21403491
15	0xbebc0e5f	-0.36729714
16	0xbddd66d2	-0.10810627
17	0xbe01e8c0	-0.12686443
18	0xbe5915ab	-0.21199672
19	0xbe86777c	-0.26263034
20	0xbe274aa2	-0.16337064
21	0x3cbfaf1d	0.02339893
22	0x3e292afa	0.165203
23	0x3ea08d95	0.3135802
24	0xbe0b1276	-0.13581261
25	0xbe65d0c7	-0.22442923
26	0x3e95ede2	0.29283053
27	0x3de9efed	0.11422715
28	0xbea09c21	-0.31369117
29	0x3d5f271b	0.054480653
30	0xbe45cf3e	-0.19317338
31	0x3e5c964e	0.21541712
32	0x3dc2cc02	0.09511568
33	0xbde94a8b	-0.11391171
34	0x3ebad15a	0.36487848
35	0x3f00294c	0.50063014
36	0x3db7ef48	0.08981186
37	0xbebe9486	-0.3722269
38	0xbec5dbf4	-0.38644373
39	0xbe0bb820	-0.13644457
40	0xbadc59c1	-0.0016811417
41	0x3b940ab6	0.0045178784
42	0xbe39dfdd	-0.18151803
43	0x3ec4b520	0.38419437
44	0xbe3785f0	-0.17922187
45	0xbe5e68e5	-0.21719702
46	0x3b81fc67	0.0039668563
47	0x3e270857	0.16311775
48	0x3e4f7bf6	0.20262131
49	0xbdcd929a	-0.10037728
50	0x3d59beec	0.053160593
51	0xbe5df48e	-0.21675321
52	0xbeea4b14	-0.45760405
53	0xbd43160d	-0.04762845
54	0x3e105d8c	0.14098185
55	0x3eb9db17	0.36299965
56	0x3e2b3686	0.16720018
57	0xbcc0fc2f	-0.02355775
58	0xbe8add9b	-0.27122197
59	0xbd7486ed	-0.059698988
60	0xbe6dce9b	-0.23223345
61	0xbe9a977b	-0.30193695
62	0x3e6db309	0.23212828
63	0x3eadf955	0.33979288
64	0x3e57b2fd	0.21064372
65	0x3e494867	0.19656526
66	0x3e13372b	0.14376514
67	0xbe9f11ad	-0.31068173
68	0x3e98bb87	0.29830572
69	0xbe3f0355	-0.18653615
70	0xbe3ebba8	-0.18626273
71	0xbe6d110e	-0.23151037
72	0x3dea86e8	0.114515126
73	0x3eceb8f9	0.40375498
74	0xbe9cdfec	-0.3063959
75	0xbe911685	-0.28337494
76	0xbcfafa94	-0.030637063
77	0xbd6b0471	-0.057377283
78	0x3e23d369	0.15998615
79	0xbe2ef98e	-0.17087385
80	0x3ead43cd	0.3384079
81	0x3de0f604	0.10984424
82	0xbc8b76ef	-0.017024485
83	0x3e77db0f	0.24204658
84	0x3dc298ca	0.095017985
85	0x3eb18ad7	0.3467624
86	0xbe832cd8	-0.2562015
87	0x3e153ef3	0.14574794
88	0x3e82fd75	0.25583997
89	0x3e28616b	0.16443412
90	0x3e190ada	0.14945546
91	0xbe17a66e	-0.14809582
92	0x3f240c11	0.6408091
93	0x3d83dc3a	0.06438489
94	0x3db4016d	0.087893344
95	0x3e4de324	0.20106179
96	0xbee025f2	-0.4377895
97	0x3ec27eb9	0.37987307
98	0xbe6dd9e2	-0.23227647
99	0xbd89397e	-0.06700419
100	0x3e67af58	0.22625482
101	0x3eb4eca1	0.35336784
102	0xbe682873	-0.2267168
103	0x3e3c8e86	0.18413743
104	0xbe8826ef	-0.26592204
105	0xbe9fcc43	-0.31210527
106	0xbed12209	-0.4084628
107	0x3ea7ae1e	0.32750028

model.model.func.edge_features_F.B f4 [3, 10, 8, 4]
0	0x3d3246a6	0.043524407
1	0xbd9f9ec7	-0.07793956
2	0x3e001802	0.12509158
3	0x3d24d427	0.040241387
4	0xbe0a4e0b	-0.13506334
5	0xbde7ab4a	-0.11311968
6	0x3b0d85fe	0.0021594758
7	0x3e852da4	0.26011384
8	0xbce83f05	-0.028350363
9	0x3dd46e9d	0.1037266
10	0xbce95384	-0.028482206
11	0x3e06b2b6	0.1315411
12	0xbb9a27f4	-0.00470447
13	0x3dd19f7e	0.10235499
14	0x3d49cf3f	0.04926991
15	0xbe561b9f	-0.20908974
16	0xbda66411	-0.08124555
17	0x3de3e089	0.11126811
18	0xbe59083a	-0.21194544
19	0xbe84918d	-0.25892296
20	0xbdc09881	-0.09404088
21	0x3bb926ac	0.005650362
22	0xbe8d739b	-0.27627262
23	0xbe33c793	-0.175566
24	0x3d1d7454	0.038441017
25	0xbd3fde1a	-0.046842672
26	0xbe12bfbd	-0.14330955
27	0xbd4aa4ea	-0.04947368
28	0x3e03ba95	0.12864144
29	0x3db22556	0.086985275
30	0xbded4143	-0.11584713
31	0xbdf55281	-0.11978627
32	0x3e095c09	0.13414015
33	0xbd4a29a0	-0.049356103
34	0x3dc7bd34	0.097528845
35	0xbcd29022	-0.025703494
36	0x3e283cd1	0.1642945
37	0x3c5d1be0	0.013495415
38	0x3df99369	0.121863194
39	0xbe2ea847	-0.1705638
40	0x3c9e01cd	0.019287968
41	0xbd8c8f2e	-0.06863247
42	0xbcb64899	-0.022251414
43	0xbdbf12a9	-0.09329731
44	0x3d03e7d2	0.032203503
45	0xbe061f0f	-0.13097785
46	0x3dbb53d5	0.09146849
47	0x3c14d049	0.009082862
48	0x3d32be11	0.043638293
49	0xbd27d290	-0.040972292
50	0xbabea90e	-0.0014546232
51	0xbd9682a4	-0.073491365
52	0x3dff79c7	0.12474399
53	0xbd86be50	-0.06579268
54	0x3d0d8947	0.034554746
55	0xbd188691	-0.037237708
56	0xbd68d2d3	-0.056841683
57	0xbd1602b9	-0.03662369
58	0xbd8d321b	-0.068943225
59	0xbd864403	-0.06555941
60	0xbd131c6a	-0.03591577
61	0xbdfdc5e1	-0.12391258
62	0x3d46d791	0.048545424
63	0x3e60d314	0.2195552
64	0x3d388ca7	0.04505601
65	0x3c90397d	0.017605538
66	0x3dd02def	0.10165011
67	0x3c7da43a	0.015481049
68	0x3dc1066e	0.094250545
69	0xbdad1966	-0.0845211
70	0x3e06b359	0.13154353
71	0x3d5059a1	0.050866727
72	0xbdb59421	-0.08866144
73	0x3d84a7db	0.064773284
74	0x3dd9e5d5	0.1063954
75	0x3dfd1d15	0.123590626
76	0xbe92f312	-0.28701073
77	0x3e557f4b	0.2084934
78	0xbd1201b2	-0.035646148
79	0xbc83bf29	-0.016082363
80	0xbc9629a2	-0.018330399
81	0xbb928554	-0.0044714604
82	0xbd7c5337	-0.061602797
83	0xbd841bc9	-0.06450612
84	0x3df1814e	0.11792241
85	0xbd87f79e	-0.06639026
86	0xbda41669	-0.08012087
87	0xbd94fc8c	-0.07274732
88	0x3dafde14	0.0858728
89	0x3c259d62	0.010108324
90	0xbd9d14c0	-0.076699734
91	0xbe0f8360	-0.1401496
92	0xbcf5f83a	-0.03002559
93	0x3b994cc7	0.004678342
94	0xbb4f8ddf	-0.0031670255
95	0x3d993e70	0.07482612
96	0x3d67006f	0.056396898
97	0xbcb69caf	-0.02229151
98	0xbd9be024	-0.07611111
99	0x3c571adf	0.013128965
100	0x3c2f30a3	0.010692748
101	0xbbe815eb	-0.007082691
102	0x3d1043fe	0.035221092
103	0xbd53ca20	-0.051706433
104	0xbb775879	-0.0037741943
105	0x3de03d2c	0.109491676
106	0x3d8f6275	0.07001201
107	0xbd56f4e3	-0.052479636
108	0x3d1ed380	0.03877592
109	0xbd3c4920	-0.045968175
110	0x3dfe17a9	0.124068566
111	0x3cf8e08c	0.03038051
112	0x3c4fed0b	0.012690793
113	0xbc0a700d	-0.008449567
114	0x3d9a15a8	0.07523662
115	0xbda68ec9	-0.08132703
116	0x3daf877b	0.08570763
117	0xbe2c4e2b	-0.16826694
118	0x3e46c46b	0.19410865
119	0x3d874ef1	0.06606854
120	0xbc7cea11	-0.015436665
121	0xbd2ba671	-0.041906778
122	0x3d915de8	0.07097989
123	0x3c05ead6	0.008173665
124	0x3dadb253	0.08481278
125	0xbd9da860	-0.076981306
126	0x3e40eacf	0.18839572
127	0x3e165633	0.1468132
128	0x3e1857d5	0.14877255
129	0x3ce00982	0.027348284
130	0xbb285a2c	-0.0025688512
131	0xbd5e4637	-0.05426618
132	0x3da0e9f2	0.078571215
133	0x3dca4696	0.098767444
134	0x3dd2e5d1	0.1029774
135	0x3d255e7a	0.040373303
136	0xbe0fe470	-0.14051986
137	0x3e4eeedc	0.20208305
138	0x3d2a8988	0.041635066
139	0xbd66a3d6	-0.05630859
140	0xbe18ad8e	-0.14909956
141	0x3e956676	0.29179734
142	0x3c362481	0.011117102
143	0xbe346c4a	-0.17619434
144	0xbe1cd0e7	-0.15314065
145	0x3e14f152	0.14545181
146	0xbe11fadf	-0.14255856
147	0xbe43bcf6	-0.19115052
148	0xbe115aae	-0.14194748
149	0xbca10536	-0.019655805
150	0xbe0090ff	-0.12555312
151	0xbd7a0ec9	-0.061049256
152	0x3d6a8122	0.057252057
153	0x3d48d3a8	0.049029976
154	0xbde357d9	-0.1110074
155	0x3ca408dd	0.020023758
156	0xbda9a75f	-0.08283877
157	0xbe180342	-0.14844993
158	0xbe0a491a	-0.13504449
159	0x3e0a7bd6	0.13523802
160	0x3a1cf4f3	0.0005987428
161	0x3e052717	0.13003193
162	0x3d876b4d	0.06612263
163	0xbd8687e4	-0.06568888
164	0xbafb2c54	-0.0019162991
165	0x3da4c331	0.08045042
166	0x3ebaf31b	0.365136
167	0x3d79c0ea	0.060974993
168	0x3ae9b3d6	0.0017830085
169	0x3e42d646	0.19027051
170	0x3d67c68e	0.05658584
171	0x3d0568f4	0.032570794
172	0xbd45fff2	-0.04833979
173	0x3e806998	0.25080562
174	0xbdd0eac6	-0.102010295
175	0xbde43709	-0.111433096
176	0xbdfcea91	-0.123494275
177	0x3e6fb425	0.23408563
178	0xbe63d0c0	-0.222476
179	0xbd37ac9a	-0.04484234
180	0xbd376477	-0.044773545
181	0x3e5ca6f6	0.21548066
182	0xbe30b576	-0.17256722
183	0xbdd93499	-0.10605735
184	0xbad357bc	-0.0016124169
185	0xbc1ec147	-0.009689636
186	0x3cf5cd8f	0.030005245
187	0x3de656e2	0.1124704
188	0x3d1c1c4d	0.038112927
189	0xbe190559	-0.14943446
190	0x3db8797a	0.09007545
191	0x3e0420a1	0.12903072
192	0x3e1dafaa	0.15399042
193	0xbe1d33bf	-0.15351771
194	0x3e27486d	0.16336222
195	0x3d91e898	0.07124442
196	0x3d09865a	0.033575393
197	0xbd8c90c0	-0.06863546
198	0xbda9055b	-0.082529746
199	0x3c889268	0.016671374
200	0xbdbcdfb9	-0.09222359
201	0xbd30d98d	-0.043176223
202	0xbddd731b	-0.1081297
203	0xbcdf72d0	-0.027276427
204	0x3cf2edae	0.02965435
205	0xbd4f57e4	-0.05062093
206	0x3cdfd436	0.02732287
207	0xbd7323b1	-0.05936021
208	0xbd61f7db	-0.055168014
209	0xbb45fbb1	-0.0030209834
210	0xbc018587	-0.007905371
211	0xbe0a8b8a	-0.13529792
212	0xbdcb2c95	-0.09920613
213	0x3d294666	0.041326903
214	0xbdfa6aa7	-0.122273736
215	0xbd0e6c7f	-0.03477144
216	0xbd9c42f7	-0.0762996
217	0x3e17729a	0.14789811
218	0xbe460223	-0.19336753
219	0xbdd67a3d	-0.10472534
220	0xbcb257e6	-0.021770429
221	0x3e0ed368	0.13947833
222	0xbdfc803b	-0.123291455
223	0xbcd8c3d8	-0.026460573
224	0xbe431f34	-0.19054872
225	0xbe06dc34	-0.13169938
226	0xbdf07ee7	-0.11742955
227	0x3ead5b48	0.33858705
228	0xbe8abca9	-0.2709706
229	0xbe0efc71	-0.13963486
230	0xbe67df2c	-0.22643727
231	0x3cd1aeb0	0.025595993
232	0xbdb52569	-0.08845026
233	0xbd4471ea	-0.0479602
234	0xbd797bf7	-0.060909238
235	0x3c5866a4	0.013208065
236	0xbce135fa	-0.027491558
237	0xbe1e53fa	-0.15461722
238	0xbcf2edc3	-0.02965439
239	0x3e09878c	0.13430613
240	0x3e04bb0c	0.12961978
241	0xbe51f865	-0.20504911
242	0x3dfae643	0.1225095
243	0x3e5d46f4	0.21609098
244	0x3e5abbea	0.21360746
245	0xbe3f44db	-0.1867861
246	0x3e6e154f	0.23250316
247	0x3e2dc53f	0.16969775
248	0x3e36c1e7	0.17847405
249	0xbe35667b	-0.17714874
250	0x3e9862f0	0.29762983
251	0x3e1c5949	0.15268435
252	0x3dc50db6	0.09621756
253	0x3d17807f	0.036987778
254	0x3e3c8bfc	0.18412775
255	0xbde9b4b5	-0.1141142

model.model.func.etn.core2_1 f4 [3, 10, 4]
0	0x3d533e33	0.05157299
1	0xbe0bca1e	-0.1365132
2	0x3e5ad9c6	0.21372136
3	0xbd9f5b23	-0.07781055
4	0xbd880932	-0.06642379
5	0x3d81356d	0.06309018
6	0xbe6c7f72	-0.23095492
7	0x3bc02ef1	0.005864971
8	0xbe02fd09	-0.12791838
9	0xbdc13a80	-0.09434986
10	0x3e733a90	0.23752809
11	0xbda1bdd6	-0.078975365
12	0x3e6615f3	0.2246931
13	0xbe31474a	-0.17312351
14	0xbe06ce93	-0.1316474
15	0x3e19ad69	0.15007557
16	0xbce6da95	-0.0281804
17	0xbde29f9c	-0.11065599
18	0x3ea3b56b	0.31974348
19	0xbd372d67	-0.044721033
20	0x3d860a1d	0.06544898
21	0x3e393482	0.18086436
22	0xbcba17f0	-0.022716492
23	0xbdc1f3a3	-0.09470298
24	0x3c1cd525	0.009572302
25	0xbe0bc45c	-0.13649124
26	0x3e42c27a	0.190195
27	0xbdbec7dd	-0.09315465
28	0x3e1da79f	0.15395974
29	0xbd997013	-0.074920796
30	0xbe8a9fe0	-0.270751
31	0x3eb498de	0.35272878
32	0x3cee3198	0.029076383
33	0x3d9c80aa	0.07641728
34	0xbe8bb5a5	-0.2728702
35	0x3e1b4da0	0.1516633
36	0x3da7ddd8	0.0819661
37	0xbe50a752	-0.20376328
38	0xbd001f4e	-0.031279854
39	0xbcfb75e0	-0.030695856
40	0x3dc5e7a4	0.096633226
41	0x3e39206c	0.18078774
42	0x3e9348ff	0.2876663
43	0x3b93f1ee	0.0045149243
44	0x3e894275	0.26808515
45	0xbe347d5d	-0.17625947
46	0xbe529f0a	-0.20568481
47	0x3cbc7fd4	0.023010172
48	0xbe5e69f1	-0.21720101
49	0x3d8651cc	0.0655857
50	0x3e81521f	0.25257966
51	0xbdc3457a	-0.09534736
52	0x3e61649f	0.2201104
53	0x3b9d1691	0.00479395
54	0xbe883f2e	-0.26610702
55	0x3d021556	0.03175863
56	0xbe8bab1f	-0.27278993
57	0x3ebbd530	0.36686087
58	0x3dc1340e	0.09433757
59	0x3dd7079e	0.104995
60	0x3dfef5a8	0.12449199
61	0x3c2c8e5c	0.010531988
62	0x3e7e720f	0.24848197
63	0xbcf91511	-0.030405553
64	0x3ccf8383	0.025331264
65	0xbe6d7fc3	-0.23193268
66	0xbd8636e4	-0.06553438
67	0x3e2c33ac	0.16816586
68	0x3ea0470e	0.3130421
69	0xbe8b36fd	-0.2719039
70	0xbea3f069	-0.32019356
71	0x3e83dfa7	0.2575657
72	0xbdcb2ea9	-0.09921009
73	0x3e36cc1d	0.178513
74	0x3ddcf25b	0.10788413
75	0xbea69e76	-0.3254277
76	0x3d6a2d78	0.05717227
77	0xbea898e1	-0.32929137
78	0xbde1f258	-0.110325515
79	0xbe23b602	-0.15987399
80	0xbe384642	-0.17995551
81	0xbe376173	-0.17908268
82	0xbeb1a0b7	-0.34692928
83	0x3d91f788	0.07127291
84	0xbe85a1d2	-0.26100022
85	0x3dfc253b	0.12311789
86	0xbe17c133	-0.14819793
87	0x3e13c455	0.14430363
88	0x3e21be53	0.15795259
89	0x3e11cd17	0.14238392
90	0xbe80f6cc	-0.2518829
91	0x3dedbc14	0.11608139
92	0x3c5d3de6	0.013503527
93	0x3e0906e8	0.13381541
94	0x3e85ccb7	0.26132748
95	0xbcf5189b	-0.02991896
96	0xbdeb9f83	-0.11505034
97	0xbbd1fdaa	-0.006408413
98	0x3e30f8df	0.17282437
99	0xbe8ec101	-0.27881625
100	0x3e677064	0.22601467
101	0x3e919d02	0.284401
102	0x3e9ed1f1	0.31019548
103	0xbe9a22e2	-0.30104738
104	0x3d31a1cf	0.043367203
105	0xbdc96180	-0.0983305
106	0x3ebc1254	0.36732733
107	0xbd977cde	-0.073968634
108	0xbcafcc06	-0.02145959
109	0xbd0f07f6	-0.0349197
110	0x3eee92d7	0.46596405
111	0xbd1bf641	-0.038076643
112	0x3d2f0df2	0.04273791
113	0x3d979c5d	0.07402871
114	0xbe9afc2b	-0.30270514
115	0xbd02d76c	-0.031943724
116	0x3de04ff3	0.10952749
117	0x3e5db664	0.21651608
118	0x3e69640b	0.2279207
119	0xbe7acac2	-0.24491408

model.model.func.etn.core2_d f4 [3, 4, 10]
0	0xbd70ed5b	-0.05882011
1	0x3d56e9f0	0.052469194
2	0x3d048e0c	0.03236203
3	0xbccfa37a	-0.025346506
4	0x3e7ae295	0.24500497
5	0xbd333e6e	-0.04376071
6	0x3d5b4315	0.05353077
7	0xbe792a06	-0.24332437
8	0x3e125b97	0.14292751
9	0xbe593aa2	-0.21213773
10	0x3d8e1bca	0.06938894
11	0xbda4816b	-0.08032497
12	0x3e48148b	0.19539087
13	0xbdec39f2	-0.1153449
14	0xbddceed1	-0.10787738
15	0xbe58006d	-0.21093912
16	0x3db69b24	0.089163095
17	0xbe4db4c1	-0.20088483
18	0x3db02aee	0.08601938
19	0xbe4cd55e	-0.20003268
20	0xbe51c49b	-0.20485155
21	0x3e08a981	0.1334591
22	0x3c18b50d	0.00932051
23	0x3ea18041	0.31543162
24	0xbd54cfa8	-0.05195585
25	0x3ddddb1c	0.108328074
26	0xbe4e63a6	-0.201552
27	0x3c24a305	0.0100486325
28	0xbe9a9b20	-0.30196476
29	0x3bd0ecb8	0.0063758753
30	0x3ea5c35e	0.32375616
31	0xbddcc73d	-0.10780189
32	0x3d076ae8	0.033060938
33	0xbd2387e8	-0.039924532
34	0x3eb23322	0.34804636
35	0x3ec88319	0.3916252
36	0x3d8101e3	0.06299188
37	0xbdca34e5	-0.0987337
38	0xbe34a462	-0.17640832
39	0xbe1d7b1b	-0.15378992
40	0xbc905a79	-0.017621266
41	0xbdedb974	-0.11607638
42	0x3df54bef	0.11977374
43	0xbe44fe98	-0.19237745
44	0x3e575be8	0.21031153
45	0xbe0d6b14	-0.13810378
46	0xbea6a365	-0.32546535
47	0xbe49aac8	-0.19694054
48	0x3e72f896	0.2372764
49	0xbe02abb3	-0.1276081
50	0x3ccbe3b5	0.024888853
51	0x3e55c1b1	0.20874669
52	0x3e11e0c4	0.14245898
53	0x3ce352d7	0.027749462
54	0xbe8baa15	-0.272782
55	0x3e812a37	0.2522752
56	0x3e752abc	0.23942083
57	0xbd97e9de	-0.074176535
58	0x3de2a7b6	0.110671446
59	0x3e20faed	0.1572072
60	0xbc9bf117	-0.019035859
61	0x3e809b0f	0.251183
62	0xbc8cd340	-0.017190576
63	0x3e53a7ed	0.20669527
64	0xbe2d0852	-0.16897705
65	0xbde0b893	-0.10972705
66	0x3e124618	0.14284551
67	0x3c04e5f2	0.008111464
68	0xbac200a8	-0.0014801221
69	0xbc69b4e1	-0.014264316
70	0x3e11381f	0.14181565
71	0xbbdc4a8c	-0.006722754
72	0x3dd6e6f3	0.10493269
73	0xbe1ff5f6	-0.1562117
74	0x3d70f401	0.05882645
75	0x3e2d633f	0.1693239
76	0x3d1491c9	0.036271844
77	0xbe703f25	-0.23461588
78	0xbe0aa26c	-0.13538522
79	0xbdfb72c8	-0.12277752
80	0x3e31c50e	0.17360327
81	0xbe596425	-0.21229608
82	0xbdb71837	-0.089401655
83	0xbe30a64c	-0.17250937
84	0x3c866750	0.016406685
85	0xbd14ddc5	-0.03634431
86	0xbdda58bf	-0.10661458
87	0xbddbf307	-0.10739713
88	0x3e9773a6	0.2958042
89	0xbe07b80f	-0.13253807
90	0x3e956307	0.29177114
91	0x3dbe9912	0.093065396
92	0xbd53be91	-0.05169541
93	0xbd958627	-0.07300978
94	0xbe1cebfa	-0.15324393
95	0xbe9369af	-0.28791568
96	0xbe900d76	-0.2813527
97	0xbea621e9	-0.32447746
98	0x3e18aa80	0.1490879
99	0xbee50be0	-0.44735622
100	0x3d02ae63	0.03190459
101	0xbdcb990c	-0.09941301
102	0xbdde8116	-0.10864465
103	0x3e61e9be	0.22061822
104	0xbda73467	-0.08164292
105	0x3e8170e0	0.2528143
106	0x3dddf73f	0.10838174
107	0x3e74dbe2	0.23912004
108	0xbe3fbde5	-0.18724783
109	0x3d80174c	0.062544435
110	0x3e5c46e9	0.21511425
111	0xbe907460	-0.28213787
112	0x3e6ff5cb	0.23433606
113	0xbe84a18d	-0.25904503
114	0xbebe58d7	-0.37177154
115	0xbd7f9b08	-0.06240371
116	0xbdc5a450	-0.09650481
117	0x3e2798ce	0.16366884
118	0x3e179316	0.14802203
119	0xbe87aa6c	-0.2649721

model.model.func.per_species_rescale.shifts f4 [3]
0	0xc41a8925	-618.1429
1	0xc41a8925	-618.1429
2	0xc41a8925	-618.1429

model.model.func.per_species_rescale.scales f4 [3]
0	0x3f800000	1.0
1	0x3f800000	1.0
2	0x3f800000	1.0
