ETN/allegro_module/results/aspirin/example/last_model.pth (torch, 10043 bytes, 9 tensors)

model.model.func.radial_basis.basis._mean f4 [8]
0	0x3dd2aa24	0.10286358
1	0x3da143c9	0.07874257
2	0x3dbe6aa8	0.09297687
3	0x3da99899	0.08281059
4	0x3db9af7c	0.09066674
5	0x3dac7352	0.08420433
6	0x3db78fd5	0.08962981
7	0x3dadd9ee	0.084888324

model.model.func.radial_basis.basis._inv_std f4 [8]
0	0x418e28d5	17.769938
1	0x40d44410	6.6333084
2	0x40a9de24	5.308367
3	0x408bafbe	4.365203
4	0x407886e8	3.883234
5	0x405ea255	3.478658
6	0x404d9ecc	3.2128172
7	0x403e7c9c	2.9763556

model.model.func.radial_basis.basis.basis.bessel_weights f4 [8]
0	0x404ebbc7	3.230211
1	0x40cd546d	6.416556
2	0x411999eb	9.600078
3	0x414b99c7	12.725043
4	0x417be7a5	15.744054
5	0x4197a52f	18.955656
6	0x41aef194	21.867958
7	0x41cc8167	25.563185

model.model.func.edge_features_F.A f4 [3, 4, 9]
0	0x3d60e0f5	0.054902036
1	0xbcac4530	-0.021029085
2	0xbe034d98	-0.12822568
3	0x3e6a5b7e	0.22886464
4	0x3e225e57	0.158563
5	0x3dcd1ab9	0.100148626
6	0x3e98535d	0.297511
7	0xbde70580	-0.11280346
8	0x3de8f7eb	0.113754116
9	0xbe021e46	-0.12706861
10	0xbe3d7319	-0.18500938
11	0x3eb0b2cf	0.3451142
12	0x3d9cbdaa	0.07653363
13	0xbeaeb6ec	-0.34123933
14	0xbe5a1759	-0.21297969
15	0xbebac097	-0.3647506
16	0xbde187b4	-0.110122114
17	0xbe037411	-0.12837245
18	0xbe5af48b	-0.21382348
19	0xbe859788	-0.26092172
20	0xbe227f04	-0.15868765
21	0x3cab4b11	0.020909818
22	0x3e29943c	0.16560453
23	0x3ea09fd4	0.3137194
24	0xbe1563f4	-0.1458891
25	0xbe6b0d06	-0.22954187
26	0x3e9657c1	0.29363826
27	0x3de6fd29	0.11278755
28	0xbea184a6	-0.31546515
29	0x3d70e2f9	0.058810208
30	0xbe42e9eb	-0.19034545
31	0x3e5ce994	0.21573478
32	0x3dbe8dcb	0.093043886
33	0xbdf037ce	-0.11729394
34	0x3ebcf926	0.36908835
35	0x3f00fb33	0.503833
36	0x3db7fdca	0.08983953
37	0xbebefdb8	-0.37302947
38	0xbec4f6cd	-0.38469544
39	0xbe0bc331	-0.13648678
40	0xbafef2e5	-0.001945105
41	0x3b9982e1	0.0046847914
42	0xbe3a3324	-0.18183571
43	0x3ec59024	0.38586533
44	0xbe377253	-0.17914705
45	0xbe614733	-0.21999817
46	0x3ba60e51	0.0050676246
47	0x3e24e846	0.1610423
48	0x3e4f2c54	0.20231754
49	0xbdccb047	-0.0999456
50	0x3d574d3b	0.052563887
51	0xbe65e29d	-0.22449727
52	0xbeeaa26d	-0.45827046
53	0xbd397a99	-0.045282934
54	0x3e10755a	0.14107266
55	0x3eb9b624	0.36271775
56	0x3e282748	0.16421235
57	0xbcd23cfc	-0.025663845
58	0xbe8c6c36	-0.27426308
59	0xbd7dfcf5	-0.062008817
60	0xbe695d11	-0.22789408
61	0xbe9b4d42	-0.3033238
62	0x3e709762	0.23495248
63	0x3eae4eb6	0.34044427
64	0x3e56ab50	0.20963788
65	0x3e4d1e9e	0.20031211
66	0x3e128c14	0.14311248
67	0xbe9fd9d6	-0.31220883
68	0x3e9b2bee	0.30306953
69	0xbe3a3867	-0.18185578
70	0xbe3d515d	-0.18488069
71	0xbe6c553f	-0.23079394
72	0x3df7a495	0.120919384
73	0x3ed08d88	0.4073298
74	0xbe9d015c	-0.306651
75	0xbe907b7d	-0.28219214
76	0xbcf0062a	-0.029299814
77	0xbd5e711f	-0.0543071
78	0x3e24d680	0.1609745
79	0xbe2edece	-0.1707718
80	0x3eae02e3	0.33986577
81	0x3ddd06af	0.107922904
82	0xbc946be1	-0.018117847
83	0x3e77377e	0.24142262
84	0x3dbea484	0.093087226
85	0x3eb1fd48	0.3476355
86	0xbe8486c3	-0.25884065
87	0x3e132289	0.14368643
88	0x3e861db3	0.26194534
89	0x3e25b094	0.1618064
90	0x3e1b660f	0.15175651
91	0xbe171294	-0.1475318
92	0x3f2408bf	0.64075845
93	0x3d80a193	0.06280818
94	0x3db699a3	0.08916023
95	0x3e4e5b9a	0.2015213
96	0xbedf3183	-0.43592462
97	0x3ec408db	0.38288006
98	0xbe6bde56	-0.23034033
99	0xbd81e8e2	-0.06343247
100	0x3e674ed6	0.22588667
101	0x3eb5e1c4	0.35523808
102	0xbe64ee57	-0.22356544
103	0x3e3c514e	0.1839039
104	0xbe87e6f5	-0.26543394
105	0xbea04203	-0.31300363
106	0xbed27e78	-0.41112113
107	0x3ea56a09	0.3230746

model.model.func.edge_features_F.B f4 [3, 10, 8, 4]
0	0x3d3a064a	0.045416154
1	0xbda0f74e	-0.078596696
2	0x3e003a8e	0.12522337
3	0x3d253b19	0.040339563
4	0xbe0720b6	-0.13196072
5	0xbde7e842	-0.113235965
6	0x3b300f31	0.0026864524
7	0x3e863745	0.26214042
8	0xbcd40a6f	-0.025883881
9	0x3dd41289	0.10355098
10	0xbcd5ae36	-0.026084047
11	0x3e082d99	0.13298644
12	0xbb0788ff	-0.0020681021
13	0x3dcc8271	0.09985817
14	0x3d4d3aa8	0.050104767
15	0xbe57c9b8	-0.21073043
16	0xbda361ce	-0.07977639
17	0x3dde6416	0.10858934
18	0xbe5b0d67	-0.21391831
19	0xbe866f4c	-0.26256788
20	0xbdbf7134	-0.09347764
21	0x3badeb0e	0.0053075617
22	0xbe8d90af	-0.27649447
23	0xbe346af3	-0.17618923
24	0x3d18327e	0.037157528
25	0xbd3f5c5b	-0.046718936
26	0xbe14438c	-0.14478892
27	0xbd3ea34b	-0.046542447
28	0x3e05d4c1	0.1306944
29	0x3db64e1d	0.08901618
30	0xbdf34442	-0.118782535
31	0xbdf965e1	-0.12177635
32	0x3e0afe30	0.13573527
33	0xbd4ce316	-0.050021254
34	0x3dc9bab5	0.09850065
35	0xbccecbc8	-0.025243655
36	0x3e27108e	0.16314909
37	0x3c68de50	0.01421316
38	0x3dfb4deb	0.12270721
39	0xbe2fc51c	-0.17165035
40	0x3c8c9a09	0.017163293
41	0xbd8ad64b	-0.067791544
42	0xbcb5a88e	-0.0221751
43	0xbdc1e3af	-0.09467255
44	0x3cf804b6	0.030275684
45	0xbe064908	-0.13113797
46	0x3dbb4b54	0.09145227
47	0x3c1c3887	0.009534962
48	0x3d2c8f59	0.042128894
49	0xbd22f4c4	-0.039784208
50	0xbabb6e2b	-0.00142998
51	0xbd96a91b	-0.07356473
52	0x3dff63cf	0.12470209
53	0xbd823e57	-0.06359547
54	0x3d0e679c	0.03476678
55	0xbd235968	-0.039880186
56	0xbd68d590	-0.056844294
57	0xbd194482	-0.03741885
58	0xbd90e384	-0.07074645
59	0xbd8d7296	-0.06906621
60	0xbd12562f	-0.035726722
61	0xbdfde00b	-0.123962484
62	0x3d41d3e6	0.047321223
63	0x3e606886	0.21914873
64	0x3d33aa3d	0.043863524
65	0x3c8eb4e7	0.017420245
66	0x3dd1a1c5	0.10235933
67	0x3c786946	0.015161818
68	0x3dbe2673	0.09284677
69	0xbdaeebe6	-0.08541088
70	0x3e027f39	0.12743844
71	0x3d45093b	0.048104506
72	0xbdb80c3f	-0.08986711
73	0x3d8640f3	0.06555357
74	0x3dd94b31	0.10610045
75	0x3df9964a	0.121868685
76	0xbe92fbdb	-0.28707775
77	0x3e5549da	0.20828953
78	0xbd02bbb8	-0.031917304
79	0xbc7bdb64	-0.015372131
80	0xbc84742c	-0.016168676
81	0xbbf5f859	-0.007506412
82	0xbd72604c	-0.059173867
83	0xbd81641a	-0.06317921
84	0x3dfbe30f	0.12299167
85	0xbd8c90ef	-0.068635814
86	0xbda9a54b	-0.0828348
87	0xbd9a19ff	-0.075244896
88	0x3db6957a	0.08915229
89	0x3c1fd644	0.009755675
90	0xbda7ea7f	-0.081990235
91	0xbe0fa122	-0.14026311
92	0xbcff3874	-0.031154849
93	0x3b9b8937	0.004746582
94	0xbbb16582	-0.005413712
95	0x3d9dbf73	0.07702532
96	0x3d70eadf	0.05881774
97	0xbcc9240a	-0.024553318
98	0xbd97fa16	-0.07420747
99	0x3c807c82	0.01568437
100	0x3bbbd698	0.0057323687
101	0xbbdb1865	-0.0066862577
102	0x3d19946a	0.037495054
103	0xbd4b9226	-0.049699925
104	0xbc077923	-0.008268627
105	0x3de4e7ca	0.11177023
106	0x3d9172f5	0.071020044
107	0xbd5d57e9	-0.054038916
108	0x3d1dd185	0.03852989
109	0xbd3e25a1	-0.046422604
110	0x3e01c153	0.12671404
111	0x3ce488b2	0.027897213
112	0x3c3b31b8	0.011425428
113	0xbc0646e1	-0.00819561
114	0x3d9b4772	0.075819865
115	0xbdab3822	-0.08360316
116	0x3daf4ffa	0.08560176
117	0xbe2a9ef7	-0.16662203
118	0x3e46b9bf	0.19406794
119	0x3d832a90	0.064046025
120	0xbc7911bd	-0.015201983
121	0xbd2ac8c8	-0.041695386
122	0x3d90e5a3	0.0707505
123	0x3be3266b	0.00693207
124	0x3da9848c	0.082772344
125	0xbd9caac8	-0.076497614
126	0x3e3f9733	0.18710022
127	0x3e14e93a	0.14542094
128	0x3e17bc8e	0.14818022
129	0x3cd6041a	0.026125003
130	0xbb84f0e5	-0.004057037
131	0xbd502b0b	-0.0508223
132	0x3d9ae7f3	0.07563772
133	0x3dc4af11	0.09603704
134	0x3dd08e58	0.101834
135	0x3d35762e	0.044302158
136	0xbe1066ad	-0.14101668
137	0x3e50d2e7	0.20392953
138	0x3d32aa93	0.043619704
139	0xbd6f3058	-0.058395714
140	0xbe177231	-0.14789654
141	0x3e972401	0.29519656
142	0x3c6798f5	0.014135589
143	0xbe3bea07	-0.18350993
144	0xbe1eb4e8	-0.15498698
145	0x3e152c7b	0.14567749
146	0xbe0f5437	-0.13996969
147	0xbe44e171	-0.19226624
148	0xbe130579	-0.14357556
149	0xbcb29cb3	-0.021803236
150	0xbdfac7ca	-0.12245138
151	0xbd6c373c	-0.057669863
152	0x3d6d5e50	0.05795127
153	0x3d3ce802	0.046119697
154	0xbde5ba88	-0.11217219
155	0x3cb3bf77	0.021941883
156	0xbda991da	-0.08279772
157	0xbe18da3c	-0.14927
158	0xbe0d9ee2	-0.1383014
159	0x3e0b782c	0.1362006
160	0xb9b898e6	-0.00035209133
161	0x3e054f18	0.13018453
162	0x3d88ce32	0.06679954
163	0xbd850ec3	-0.06496956
164	0xba91aeb4	-0.0011114688
165	0x3da4fe3e	0.08056305
166	0x3ebbca96	0.36677998
167	0x3d769184	0.06019737
168	0x3b6f996d	0.0036559955
169	0x3e441dfc	0.19152063
170	0x3d6f4c78	0.058422536
171	0x3cfe8644	0.031069882
172	0xbd40535e	-0.046954505
173	0x3e80eda2	0.251813
174	0xbdce8239	-0.10083432
175	0xbde58a17	-0.11207979
176	0xbdfc77b2	-0.123275176
177	0x3e714c33	0.23564224
178	0xbe65f683	-0.22457318
179	0xbd3ef1c2	-0.046617277
180	0xbd3ace9e	-0.0456072
181	0x3e5f8f69	0.2183205
182	0xbe32803b	-0.17431729
183	0xbddc1348	-0.10745865
184	0xbb3d133a	-0.0028850571
185	0xbbcf0262	-0.0063174227
186	0x3cf0cb15	0.029393712
187	0x3de31006	0.110870406
188	0x3d1abef4	0.037779763
189	0xbe17c896	-0.14822611
190	0x3db7861c	0.08961126
191	0x3e00e06e	0.12585613
192	0x3e1f0081	0.15527536
193	0xbe1db2a3	-0.15400176
194	0x3e264f58	0.16241205
195	0x3d91d033	0.07119789
196	0x3d0f4c98	0.034985155
197	0xbd8e7bf9	-0.0695724
198	0xbdae8cd8	-0.085229576
199	0x3c924492	0.017854962
200	0xbdbdc314	-0.09265724
201	0xbd36239f	-0.044467565
202	0xbddcea2e	-0.10786854
203	0xbcd32605	-0.025774965
204	0x3cf038f4	0.029324032
205	0xbd530beb	-0.051525038
206	0x3ce0ac9a	0.027426053
207	0xbd793d4d	-0.060849477
208	0xbd61487c	-0.055000767
209	0xbb964354	-0.004585663
210	0xbbdd2891	-0.0067492207
211	0xbe0b4f09	-0.13604368
212	0xbdc8fd21	-0.098139055
213	0x3d1f939c	0.03895913
214	0xbdf7c050	-0.120972276
215	0xbd0dade7	-0.034589674
216	0xbd99e0c1	-0.075135715
217	0x3e1563c5	0.1458884
218	0xbe485843	-0.19564919
219	0xbdd633df	-0.104591124
220	0xbcb2cc45	-0.021825919
221	0x3e0f45f3	0.13991527
222	0xbe0071e9	-0.12543453
223	0xbcdd2d7d	-0.02699923
224	0xbe426eb2	-0.1898754
225	0xbe075ec7	-0.13219748
226	0xbde9f9a1	-0.11424566
227	0x3eaeabd6	0.34115475
228	0xbe8a6e97	-0.27037498
229	0xbe0d12b6	-0.13776669
230	0xbe613c72	-0.21995714
231	0x3cbfe8fe	0.023426529
232	0xbdb6fd00	-0.08934975
233	0xbd3bcc17	-0.045848932
234	0xbd75c3a1	-0.06000102
235	0x3c15c33e	0.009140788
236	0xbce121c7	-0.027481927
237	0xbe1eb0b2	-0.15497091
238	0xbcfa2be9	-0.030538516
239	0x3e0ab0a2	0.13543943
240	0x3e06e507	0.13173304
241	0xbe520d31	-0.20512845
242	0x3dfb2ca9	0.122643776
243	0x3e5f8f3d	0.21831985
244	0x3e5b2f96	0.21404871
245	0xbe3f15c3	-0.18660645
246	0x3e6e6cf2	0.23283747
247	0x3e2c241e	0.16810653
248	0x3e3868ff	0.18008803
249	0xbe37f19d	-0.17963262
250	0x3e9af160	0.3026228
251	0x3e1e49d5	0.15457852
252	0x3dc62705	0.09675411
253	0x3d12b12c	0.035813496
254	0x3e4017f5	0.18759139
255	0xbdeb0db3	-0.11477222

model.model.func.etn.core2_1 f4 [3, 10, 4]
0	0x3d55547f	0.052082535
1	0xbe0d41dc	-0.13794655
2	0x3e5b7a73	0.2143343
3	0xbd9f3263	-0.077732824
4	0xbd889829	-0.06669647
5	0x3d8871af	0.066623084
6	0xbe6d674a	-0.23183933
7	0x3bdc87e7	0.006730068
8	0xbe035942	-0.12827018
9	0xbdc3569d	-0.095380045
10	0x3e73402c	0.23754948
11	0xbda36877	-0.079789095
12	0x3e655baa	0.22398248
13	0xbe30e97b	-0.17276566
14	0xbe06627c	-0.13123506
15	0x3e1a42ca	0.1506454
16	0xbcdad92e	-0.026714887
17	0xbde5c64e	-0.11219464
18	0x3ea3b14e	0.3197121
19	0xbd350657	-0.0441955
20	0x3d871be8	0.065971196
21	0x3e38dfbf	0.18054102
22	0xbcbdffbd	-0.023193235
23	0xbdc2fd8d	-0.09521017
24	0x3c2f83a1	0.010712535
25	0xbe0c9127	-0.13727246
26	0x3e43e55d	0.19130464
27	0xbdbe71ef	-0.09299075
28	0x3e1d6972	0.15372255
29	0xbd9c242c	-0.07624087
30	0xbe8aa6ac	-0.27080286
31	0x3eb4c388	0.35305429
32	0x3cf921d4	0.030411638
33	0x3d9c714b	0.076387964
34	0xbe8acd89	-0.27109936
35	0x3e1c3a0c	0.15256518
36	0x3da42ab7	0.0801596
37	0xbe4e8a11	-0.20169856
38	0xbd017998	-0.0316101
39	0xbcf8a07c	-0.030349962
40	0x3dcbc13a	0.099489644
41	0x3e35bd22	0.1774793
42	0x3e95063f	0.29106328
43	0x3b97b363	0.004629539
44	0x3e892f31	0.26793817
45	0xbe33bf48	-0.17553437
46	0xbe54ebc7	-0.20793067
47	0x3cb9bcfb	0.02267312
48	0xbe602edd	-0.21892877
49	0x3d8535c4	0.065043956
50	0x3e8200a7	0.25391123
51	0xbdc1f95d	-0.094713904
52	0x3e5f90c4	0.21832567
53	0x3bbc2bdc	0.005742533
54	0xbe895350	-0.26821375
55	0x3d01fdd7	0.03173622
56	0xbe8b0f2d	-0.27160016
57	0x3ebb6f8a	0.36608535
58	0x3dc17e2d	0.09447894
59	0x3dd6e096	0.10492055
60	0x3e019d30	0.12657619
61	0x3c0433ed	0.008069021
62	0x3e80cc0a	0.2515567
63	0xbcf8eef9	-0.030387389
64	0x3cd2a485	0.025713215
65	0xbe6a2b0f	-0.22867988
66	0xbd802875	-0.062577166
67	0x3e2f0a52	0.1709378
68	0x3ea0130b	0.3126453
69	0xbe8ad2d5	-0.27113977
70	0xbea4d6cb	-0.32195124
71	0x3e83c038	0.2573259
72	0xbdce9271	-0.10086525
73	0x3e38df5c	0.18053955
74	0x3dde9e4c	0.108700365
75	0xbea6d5e6	-0.32585067
76	0x3d4d96d9	0.050192688
77	0xbea90980	-0.3301506
78	0xbde6951f	-0.11258911
79	0xbe234fb0	-0.15948367
80	0xbe36f079	-0.1786517
81	0xbe3a1d21	-0.18175174
82	0xbeb278f8	-0.34857917
83	0x3d918be3	0.071067594
84	0xbe85f517	-0.2616355
85	0x3df91c65	0.12163619
86	0xbe198d54	-0.14995319
87	0x3e12e122	0.14343694
88	0x3e20710f	0.15668128
89	0x3e105e2f	0.14098428
90	0xbe80eee6	-0.25182265
91	0x3df34d2c	0.11879954
92	0x3c422c75	0.01185142
93	0x3e098adf	0.13431881
94	0x3e85b2ac	0.26112878
95	0xbcf317ae	-0.029674377
96	0xbdea8fee	-0.11453234
97	0xbbc63ef3	-0.0060499846
98	0x3e31523c	0.17316526
99	0xbe8fbbcf	-0.28072974
100	0x3e66fa25	0.2255636
101	0x3e92cfa5	0.28674045
102	0x3e9e0a43	0.30867204
103	0xbe9adfd4	-0.30248892
104	0x3d28ff1a	0.04125891
105	0xbdc63914	-0.096788555
106	0x3ebcf076	0.36902207
107	0xbd94429f	-0.072392695
108	0xbcbb301c	-0.022850089
109	0xbd095f17	-0.03353795
110	0x3eef6ab3	0.46761093
111	0xbd0c04ae	-0.03418415
112	0x3d3023dd	0.043002952
113	0x3d9601d8	0.073245704
114	0xbe9bf417	-0.30459663
115	0xbd1ecf71	-0.03877205
116	0x3ddd0af7	0.10793107
117	0x3e5f3cbc	0.21800512
118	0x3e6b0272	0.22950152
119	0xbe795c48	-0.24351609

model.model.func.etn.core2_d f4 [3, 4, 10]
0	0xbd6bf964	-0.057610884
1	0x3d538472	0.05163998
2	0x3d05a574	0.03262849
3	0xbcc9b449	-0.0246221
4	0x3e7b20cb	0.24524228
5	0xbd2f6cce	-0.042828374
6	0x3d5bb305	0.053637523
7	0xbe787fa9	-0.24267448
8	0x3e11569a	0.14193192
9	0xbe582103	-0.21106343
10	0x3d8c9425	0.06864194
11	0xbda6862a	-0.081310585
12	0x3e48b27c	0.19599336
13	0xbdebb8d5	-0.11509863
14	0xbddc48fa	-0.10756107
15	0xbe5bf2e6	-0.21479377
16	0x3db989ac	0.09059462
17	0xbe4df9cb	-0.2011482
18	0x3db23943	0.08702328
19	0xbe4f45e9	-0.20241512
20	0xbe520ce9	-0.20512737
21	0x3e07f1ed	0.13275881
22	0x3c0ec181	0.008713127
23	0x3ea14843	0.31500444
24	0xbd5083a2	-0.050906785
25	0x3de2e7cf	0.1107937
26	0xbe4ea85b	-0.2018141
27	0x3c24241a	0.010018373
28	0xbe9cf1d9	-0.30653265
29	0x3bba83a4	0.0056919623
30	0x3ea657a8	0.3248875
31	0xbddb908e	-0.10720931
32	0x3d051e7d	0.03249978
33	0xbd1c7562	-0.038197882
34	0x3eb4ae39	0.3528917
35	0x3ecb06f4	0.39653742
36	0x3d7f14f7	0.062275853
37	0xbdcf9bc2	-0.1013713
38	0xbe35e055	-0.17761357
39	0xbe1bd909	-0.15219511
40	0xbc9efdb4	-0.019408084
41	0xbdef9d61	-0.116999395
42	0x3df77d0b	0.12084397
43	0xbe455693	-0.19271307
44	0x3e587b7a	0.21140853
45	0xbe10a395	-0.14124902
46	0xbea83080	-0.32849503
47	0xbe494e05	-0.19658668
48	0x3e73b4f6	0.237995
49	0xbe01c28d	-0.12671871
50	0x3cca0c8b	0.024664184
51	0x3e5489a0	0.20755625
52	0x3e134d55	0.14384969
53	0x3cdce6e6	0.02696557
54	0xbe8b26e1	-0.271781
55	0x3e811660	0.25212383
56	0x3e73cb3e	0.23808
57	0xbd98bf60	-0.07458377
58	0x3de59535	0.112100996
59	0x3e1fa5d5	0.15590604
60	0xbc90f35b	-0.017694166
61	0x3e7f3015	0.24920686
62	0xbc699748	-0.01425726
63	0x3e53fdcc	0.20702285
64	0xbe2d8d5b	-0.16948454
65	0xbddd9804	-0.1082001
66	0x3e13234a	0.1436893
67	0x3bbfaf1b	0.0058497316
68	0x3b2c6cb4	0.002630991
69	0xbc7d542f	-0.015461965
70	0x3e10e0ed	0.14148302
71	0xbbcea847	-0.0063066813
72	0x3dd51a05	0.104053535
73	0xbe207cbc	-0.15672582
74	0x3d724848	0.059150964
75	0x3e2df118	0.16986501
76	0x3d143247	0.03618076
77	0xbe700993	-0.23441152
78	0xbe0aa9f7	-0.13541399
79	0xbdfd76cb	-0.123761736
80	0x3e32f2e4	0.17475468
81	0xbe58f2c8	-0.21186364
82	0xbdb5c9c8	-0.08876377
83	0xbe32af86	-0.1744977
84	0x3c985869	0.018596845
85	0xbd1b8482	-0.037968166
86	0xbdda0bad	-0.10646758
87	0xbddde19c	-0.10834047
88	0x3e9b01b4	0.30274737
89	0xbe05c0d7	-0.13061844
90	0x3e9561a9	0.2917607
91	0x3dc8e0c0	0.09808493
92	0xbd56a531	-0.052403633
93	0xbd921485	-0.0713282
94	0xbe1d9a96	-0.15391001
95	0xbe92947c	-0.2862891
96	0xbe901730	-0.2814269
97	0xbea60002	-0.3242188
98	0x3e152376	0.14564309
99	0xbee5f52b	-0.4491361
100	0x3cffba66	0.031216811
101	0xbdcfffa5	-0.10156182
102	0xbddd49bb	-0.108050786
103	0x3e614220	0.21997881
104	0xbda812d6	-0.08206718
105	0x3e81fa4f	0.25386283
106	0x3dde012f	0.108400695
107	0x3e754756	0.23952994
108	0xbe40569d	-0.1878304
109	0x3d802a2b	0.06258043
110	0x3e5b839d	0.21436925
111	0xbe915d4c	-0.28391492
112	0x3e6e6b29	0.23283066
113	0xbe83af3f	-0.2571964
114	0xbebea085	-0.37231842
115	0xbd7d6259	-0.06186137
116	0xbdc30bfe	-0.09523772
117	0x3e26a942	0.16275504
118	0x3e17d532	0.14827421
119	0xbe87bee7	-0.26512834

model.model.func.per_species_rescale.shifts f4 [3]
0	0xc41a8925	-618.1429
1	0xc41a8925	-618.1429
2	0xc41a8925	-618.1429

model.model.func.per_species_rescale.scales f4 [3]
0	0x3f800000	1.0
1	0x3f800000	1.0
2	0x3f800000	1.0
